IIE4123/hw3/LSTM.pth (torch, 215030 bytes, 14 tensors)

lstm.weight_ih_l0 f4 [200, 6]
00000000: 1332 fabc e0a0 843d a2c5 03bd 1581 273e
00000010: f22d 89bd f506 46be 5c33 633c 2645 f53d
00000020: e735 c33d 4fda 4b3c ca74 51be fe86 dabc
00000030: e729 40bd 7772 513e 3cca d63c 5362 163e
00000040: fe63 f73d e682 5abd b2d7 57bd 9e2a 88bd
00000050: 515a 113c 3bd3 243e 75cf 01be a729 42be
00000060: c0d8 baba 5756 503c cf60 22bd ab1f c7bd
00000070: 1ff8 f63d 5e18 023d 4358 debb 5489 de3d
00000080: 409d f3bb a2fa 1dbe 7a01 05be 13c3 323c
00000090: 74ec 713d 0784 ef3c b73c bdbc a382 0e3e
000000a0: 9416 a63c d8f4 f03d 63c5 b93b 01e3 04be
000000b0: 402f 2dbd 8320 dc3d 5adb 1fbe 7798 993c
000000c0: 7962 f4bd ba41 593c 715f 61bd 46c6 b83c
000000d0: d3c5 dfba 0858 62bd 7146 bcbc 6bb6 113c
000000e0: 5dbe e53d 4ff0 933d 1c88 4b3d 988b bfbd
000000f0: dd0f 343d b1e2 c1bc 7baf d8bd 68a1 45bd
00000100: fdc0 e03d 41e4 4abe f92e e8bd fb66 9dbd
00000110: 3757 ccbd b348 cc3b 520c 03be 205c 6ebe
00000120: b65e 963d 133d febd 4a3e 80bd 325b bb3d
00000130: 0e3a ab3d 74cc 4f3c 8dc8 a0bd 30d8 51be
00000140: 5532 efbd f2b1 ce3d 0a29 8bbd 0fe5 5d3c
00000150: 5f5d 08bc f469 67bd 3a9e 9bbd df90 3fbd
00000160: 192e 24bb 04ca 19bd 64fa 89bd b01c a43d
00000170: f5af 40bc c899 123e 807b 043e a6e7 e73b
00000180: 8f0d bd3d 8922 113a 0cec 8cbd 5154 92bd
00000190: 8c7f f93d 2480 debd 4cbb babc 66b6 bc3d
000001a0: f571 b13c 6623 01bd 884f 9b3d ded1 d93c
000001b0: c496 0dbd 159f abbd bd1b e5bd f6da c2bc
000001c0: b0ca adbd 98d8 09bd bb3c 683e e75a 0cbe
000001d0: b868 563e 7433 42bd 3f75 6c3d f9dd 1fbe
000001e0: 0658 0c3d c5d5 dfbd 5380 2f3c 36bd c93d
000001f0: 43d2 183e f257 dc3c b859 b6bd 0fa4 a0bd
00000200: ce4b 04be 3afb f63c bbf0 47bb 8be1 9e3d
00000210: 2e81 a9bd 591c 3ebe 3084 b2bd e325 79bc
00000220: b5d4 9cbd f19f ae3d f1b5 30bd 8fb6 d1bd
00000230: 2baa 05bd 9e3b a13d ab8f ccbd 4fae 08be
00000240: 28ed 633b d624 d73d c532 4cbd 123d 39bd
00000250: 257a 883b 5a9b 19bc 58d3 1b3c 0e40 8abd
00000260: c89e ab3d ba83 1e3d 51b8 a4bd 9897 71bd
00000270: ecbc 263e cb5d 3abd 4a0c 0dbe c5eb ddbd
00000280: c2ed ee3d 1a83 45bd 79a3 4d3e 4d39 33be
00000290: acbd 81bd 1ff9 c9bc fe7e 31be 49be f13d
000002a0: 2ae7 953d 35db 173d 0991 e0bc 03b5 60bd
000002b0: aadc d83d 5998 4fbd 48fb 35bd 5ff9 37be
000002c0: 6db7 b3bc 3771 8bbd 04bc 613d 6cdc 243c
000002d0: 5ea2 b73d 224a f0bd b10e 913c 5e12 cf3d
000002e0: 01b5 843d 169d f8bd 7d68 ae3c 3914 303d
000002f0: ec05 4a3d c5cf 12be aeee 93be 4db1 8bbe
00000300: 947a 01be bafc 1bbd 3d3e 6e3d 1aa0 623d
00000310: 9ba2 10be 072e c13d 7983 143e 86ce f63c
00000320: 5833 a6bd 9b62 633d ca06 8f3d c3a8 87bb
00000330: e9c9 593d 65f7 943d 27b9 003e 0923 273e
00000340: 8d22 57bd d1ce 6abd 97bc eb3d b607 c03d
00000350: 25c6 bbbc 6081 28be 465c 7b3c 45c0 f2bd
00000360: f786 153e f26a 4c3c 21d6 163d 1046 88bd
00000370: fb9c 543d 54c9 c0bd e009 163e a182 e53d
00000380: e0ac 803d ecd8 333d 9891 b63c 5de1 843d
00000390: 2a53 913d 623f 8a3b 9586 49bd ec57 ebbd
000003a0: 0aad 8a3c f74b 25bd e7b9 5ebd 0cee 4dbd
000003b0: 0ff5 46bd 18a6 2a3e c874 24bd b3a2 8e3b
000003c0: 6250 283e 1eae 3cbd 935a 1a3e 313e 083e
000003d0: 74a8 10bc a7d5 653d 6377 5cbc b3cf bcbc
000003e0: d579 3cbe 2f25 a2bb e018 3d3c 005e 953d
000003f0: 76e0 493d 623c 47bd 7dee d13c 8267 dd3d
-0.030541455 0.06475997 -0.0321709 0.16357835 -0.066982165 -0.19338591 0.0138672255 0.1197608
0.095317654 0.012442186 -0.20454708 -0.026675697 -0.04691496 0.20453821 0.02621948 0.14685945
0.12079619 -0.05334749 -0.052695937 -0.066487536 0.008871631 0.16096203 -0.12676795 -0.18961202
-0.001425527 0.0127158975 -0.039643105 -0.09722837 0.12059044 0.03176152 -0.006785424 0.10866037
-0.007434517 -0.1542764 -0.12988845 0.010910767 0.05906339 0.02923776 -0.02310024 0.13917021
0.020274438 0.1176545 0.0056692823 -0.1297722 -0.04228139 0.107483886 -0.1561102 0.018749459
-0.11932845 0.013260299 -0.05502266 0.022555482 -0.0017072506 -0.055259734 -0.022982808 0.0088935895
0.112179495 0.072235696 0.04969035 -0.09352797 0.04396044 -0.023667665 -0.10580345 -0.048249632
0.109743096 -0.19813634 -0.11337084 -0.076856576 -0.099775724 0.0062342524 -0.12797669 -0.2327733
0.073422834 -0.12413993 -0.06261881 0.091482535 0.083606824 0.012683023 -0.07850752 -0.20492625
-0.11679522 0.10092534 -0.06794937 0.013543381 -0.008323043 -0.05649753 -0.07598539 -0.04676902
-0.002505189 -0.037546173 -0.06737211 0.08013284 -0.011760701 0.14316475 0.12937737 0.007077175
0.09231102 0.0005536457 -0.0688096 -0.07144988 0.12182531 -0.10864285 -0.022794388 0.09214477
0.021660784 -0.0315279 0.07583529 0.02658933 -0.03456761 -0.08379952 -0.11186931 -0.02378605
-0.08485925 -0.033653826 0.22679417 -0.13706551 0.20938385 -0.04741235 0.057729002 -0.1561202
0.034263633 -0.10929445 0.010711747 0.09850542 0.14923958 0.026897404 -0.08903831 -0.07843792
-0.12919542 0.030149091 -0.0030508477 0.07757863 -0.08276592 -0.18565501 -0.08716619 -0.015206787
-0.07657758 0.085266 -0.043142263 -0.102398984 -0.032632988 0.07872699 -0.0998834 -0.13347743
0.0034778807 0.10505073 -0.049853105 -0.045224257 0.0041649514 -0.009375418 0.0095108375 -0.06750499
0.083798945 0.038699843 -0.08042968 -0.05898246 0.16283005 -0.045499604 -0.13774219 -0.10835985
0.116664425 -0.04822073 0.20081891 -0.17502327 -0.06335005 -0.024654923 -0.173336 0.11803872
0.07319482 0.037074286 -0.027412908 -0.054860126 0.10588963 -0.0506824 -0.044429094 -0.17966221
-0.02193805 -0.068087034 0.055110946 0.010062318 0.08966516 -0.1173289 0.0177072 0.10110925
0.06479836 -0.12139337 0.021290058 0.042988036 0.049322054 -0.1433707 -0.28893036 -0.27283707
-0.12644416 -0.038082816 0.058164824 0.055328466 -0.14124529 0.09432607 0.14503278 0.030127775
-0.08115262 0.05551396 0.06983717 -0.004139991 0.053171072 0.07273749 0.1257063 0.16321959
-0.052523185 -0.05732614 0.1151058 0.09376471 -0.022921631 -0.16455603 0.015341824 -0.11853079
0.14602266 0.01247667 0.036825303 -0.06653988 0.05190752 -0.094134 0.14652205 0.11206556
0.06282973 0.043908045 0.022286221 0.06488297 0.070959404 0.0042189816 -0.049200613 -0.11491379
0.016928215 -0.04035565 -0.05437651 -0.050275847 -0.04857355 0.16664922 -0.040150434 0.0043528914
0.16436914 -0.04606449 0.15073614 0.13304974 -0.008829225 0.056111958 -0.013456198 -0.023048257
-0.1840585 -0.0049482803 0.011541575 0.0729332 0.04928633 -0.04864157 0.025626415 0.10810758

lstm.weight_hh_l0 f4 [200, 50]
00000000: a6d2 473d ba6e 41be 907e 3bbe 3be8 d33d
00000010: daf5 0a3e 4f02 cabd a85b 22bd beca 09be
00000020: 7a17 a53d 2ad6 863d 9c29 ae3d 6239 83bd
00000030: 9292 ed3b 5f22 0a3c 3799 08be 65f4 ebbd
00000040: cbc2 4e3d 982c 10be 5a41 123e 1d76 d43c
00000050: ea84 99bd 26be 09bc 2f73 6c3d 89c0 0dbd
00000060: 54e3 e73d e362 d53d 9aa6 30be cc1d fbbb
00000070: 7496 9a3a 7d31 ac3d 9174 193e 33d3 a8bd
00000080: 6142 b4bd 69a3 1fbd 9216 fa3c ebe1 c33d
00000090: ced5 853c dfda c6bb e93d 543d 5f1b 15be
000000a0: 4dd2 6d3d bf59 3ebd 0611 72bd b3f6 de3a
000000b0: c5e3 453e 0963 13bb 7f4d d5bb 70d9 d33c
000000c0: 049b 013d c6cf b7bc 6dff 7cbe 6c70 3bbe
000000d0: 0262 73be 4b0f 803d d3c6 a13d d0e7 103e
000000e0: cf30 a6bd 30a7 f0bd b96b 8c3d 478d 213d
000000f0: b157 8d3d 4001 23be 4bf6 89bd 7f79 153b
00000100: a789 463d 5cf8 d83d cdc4 eebd 7c73 f93c
00000110: 6f2d 753e d363 e63d 2044 eb3d c98d 813d
00000120: 3061 01be 2137 d4ba 5433 56bd ee04 b0bc
00000130: 82b0 853c 34c0 9c3d f589 5bbe 3cc2 cfbc
00000140: a81d af3d 479e 233e a92a bb3c 66f5 e93d
00000150: ef98 aabd 021d 333d e546 05bc 5f79 f73d
00000160: 87de f73b 2eff b4bd 4e0d ffbd 925d 64bd
00000170: 5c68 d3bd 4232 8a3d 8bcc 163e 78e1 363c
00000180: 7f6f d33d 6875 073e 210c abbd 9dff 8a3d
00000190: 6d39 ecbd ebf7 3c3d ee08 58bd 2c1f a63d
000001a0: b696 f03c 7f32 e5bc 2c78 ffbc 605c eebd
000001b0: 2ccf 2c3e 715d 71bd 7f82 b03d 13fe 80bd
000001c0: 9f47 e5bd f28f cd3b 10b1 143c 0377 403c
000001d0: 7700 31bd 4ed1 15be 0342 033e 30da 11be
000001e0: c0c5 413e 2fc2 b53d 3d00 f5bd 55bc 2c3e
000001f0: 2871 223e 479e bb3d 58aa 92bb 0994 c13d
00000200: 0646 32bb b4d8 4ebe 271a 293e 0ee2 67bd
00000210: ac8e 123d 1f7a 9f3d aa3e 19bc 5a0e d2bc
00000220: b73c b9bd d2e4 d83c 8aed 933d ccae 4cbc
00000230: baf6 7dbc 1a9e cc3d 04bf f93d c049 1e3e
00000240: c1c8 913c 47a7 9c3d 0925 263e d4e1 4b3e
00000250: e05d bebd 8727 d3bd c6f4 02be 25a2 55bd
00000260: c054 d0bd c531 e43d 9cd1 043d 3ec1 213e
00000270: 8d40 993d 1763 f63d e080 b1ba 1986 623c
00000280: 832c a43d ccfc 1e3e 1b37 1b3e d19f 8e3d
00000290: 9652 3b3d 4ebf 083e 9c5b e63b 89f7 34be
000002a0: 7222 6c3d 3e5c 9a3c 2a16 e23d 8229 17be
000002b0: d01c 1ebd b3d1 06bc 46f4 75bd d050 843d
000002c0: 4442 82bc be95 99bd eb37 25be c645 753c
000002d0: 0a28 043e d031 053e f52e 00be 0c0b ce3d
000002e0: 03c1 75bd 7456 083e c7b6 b1bd a8d7 ecbd
000002f0: 49d0 75bd 1a27 c9bd da70 d13d 3f22 b33d
00000300: c752 56bc 099b a73c 8d7e 0dbd 1f6a bbbc
00000310: bfc3 92bc ddf5 2b3e e66b 0a3c b138 eebd
00000320: 3167 0fbd 7db1 3f3e 7d46 1cbd 2a4e 073e
00000330: a730 ec3d 19e4 a3bb 89ba 9b3d d4c4 853d
00000340: 76ca 713d 6da1 1d3e 0287 043e c49c 6d3e
00000350: 6728 793d 5e5a 73bd 79f5 3abd e574 ec3c
00000360: 3e72 0bbe 5025 853c cf22 d33d 529a 713d
00000370: aff7 eebd b6ff ba3d 7c04 ab3d cda9 943d
00000380: a458 b73c c8d2 103d 4dee 93bc 09fe 5abb
00000390: a184 17bd 6734 3c3d 0ac7 9c3d 3a0a 62be
000003a0: f127 fcbd 0ff6 2fbd 2735 333e dc76 b53d
000003b0: 4b1d 0abe a7fd fdbd a42c cbbc 095c eb3d
000003c0: 7751 1a3d 260c 27be 90e3 23bd f622 8a3d
000003d0: 7987 013e c54c a03d cb45 493d 18b5 dd3d
000003e0: 3aa3 d43c 244e b03c 3cb8 e3bd 55e8 33bd
000003f0: 03c4 453d b887 2abd 9dc1 cebd 56c0 2f3e
0.048784874 -0.18889895 -0.18309999 0.10347029 0.13570347 -0.098637216 -0.03963819 -0.13456246
0.080611184 0.06583817 0.0850403 -0.06407429 0.0072501386 0.008431046 -0.13339697 -0.11521224
0.050478738 -0.14079511 0.14282742 0.025935227 -0.074960545 -0.008407151 0.057727035 -0.034607444
0.11322656 0.10419252 -0.17251053 -0.007663464 0.0011794106 0.08407877 0.14985873 -0.08243408
-0.08801723 -0.0389742 0.03052834 0.09564575 0.016337302 -0.006068572 0.051816855 -0.14561222
0.058061887 -0.046472307 -0.059098266 0.0017010778 0.19325168 -0.002248945 -0.0065094824 0.025860518
0.031641975 -0.022437941 -0.24706812 -0.18304604 -0.23767856 0.06252917 0.07899251 0.1415093
-0.08114778 -0.117506385 0.06856484 0.039441373 0.069014914 -0.15918446 -0.0673643 0.0022808013
0.04847112 0.10594246 -0.116586305 0.030450575 0.23943113 0.11249509 0.11487603 0.063258715
-0.1263473 -0.0016190746 -0.052295044 -0.021486726 0.016319517 0.07653847 -0.21439345 -0.025361173
0.08550578 0.15978347 0.02284749 0.11423759 -0.08329951 0.043728836 -0.008134578 0.120836966
0.007564369 -0.08837734 -0.124537095 -0.055753298 -0.10322639 0.06747867 0.14726464 0.011162154
0.103240006 0.1322838 -0.08351923 0.067870356 -0.115343906 0.04613487 -0.05274289 0.08111414
0.02936874 -0.02797818 -0.031185232 -0.11638713 0.16875905 -0.058927003 0.0861864 -0.06298461
-0.11195301 0.006273263 0.009075418 0.011747125 -0.043213334 -0.14630625 0.1281815 -0.14243388
0.18923092 0.08874928 -0.11962936 0.16868718 0.15863478 0.091610484 -0.004475873 0.094520636
-0.0027202382 -0.20199853 0.16513883 -0.056612067 0.035780594 0.077869646 -0.009353319 -0.025641609
-0.090447836 0.026476298 0.07223041 -0.012492847 -0.015500719 0.09991093 0.121946365 0.15457821
0.017795922 0.07649093 0.16225065 0.19910365 -0.09295249 -0.103102736 -0.12788686 -0.052156586
-0.10172415 0.11142305 0.03242646 0.15796372 0.07483015 0.12030619 -0.0013542436 0.013825917
0.080163024 0.15526122 0.1515774 0.06964076 0.045733057 0.13354227 0.0070299637 -0.17672552
0.057650037 0.018842813 0.11039384 -0.14761928 -0.038601696 -0.008228707 -0.06004741 0.06460726
-0.015900739 -0.07499264 -0.16134612 0.014970249 0.12905899 0.13007283 -0.12517913 0.10060701
-0.059998523 0.13314229 -0.0867744 -0.11564571 -0.06001309 -0.09821911 0.10226603 0.08746766
-0.013081259 0.020459669 -0.034544516 -0.02287775 -0.017915605 0.16793008 0.008448577 -0.11631907
-0.03501052 0.1872005 -0.03815316 0.13213411 0.11532717 -0.0050015566 0.07603938 0.065316826
0.059030972 0.1539361 0.12942126 0.23204333 0.060829546 -0.059412353 -0.045644257 0.028864333
-0.13617799 0.016253144 0.103093736 0.058985062 -0.11668336 0.09130804 0.08350465 0.072589494
0.022381134 0.035357267 -0.018057967 -0.0033415577 -0.03699172 0.045948412 0.07655151 -0.22074214
-0.12312306 -0.04295927 0.17500745 0.08860561 -0.13487737 -0.12401896 -0.02480156 0.11492164
0.037675347 -0.16313228 -0.040011942 0.067449495 0.12649335 0.078271426 0.049138825 0.108255565
0.025956739 0.021521635 -0.11119124 -0.04392274 0.048282634 -0.041633338 -0.100955226 0.17163214

lstm.bias_ih_l0 f4 [200]
00000000: 2105 893d 54c5 793d 55ed 0a3e d6f9 e2bd
00000010: 24d4 02bd 236d 5cbb 21e8 7dbd 3e11 a83d
00000020: befc c03d 2517 80bc bb46 4f3d a891 3b3e
00000030: 6e31 f33d 3257 193d fbdb ce3d 32b3 28bd
00000040: 1f78 0bbc fc12 92bd e5af 20bd 26bf 043e
00000050: ab24 c7bb ae0c 8bbd 1d28 60bc 31b2 81bd
00000060: ac7d c03d 86f3 0d3e 5c88 253e 0460 a8bb
00000070: eb64 97bb 8dc9 bf3d d0d3 bd3d 88e6 ae3d
00000080: ae81 b0bd e038 9c3d 6dbc 353e d118 153d
00000090: 86d0 75bd 9815 95bd 3bd7 343e 7054 873d
000000a0: 51d9 90bd 3bd8 f23c afb1 e43d 8af1 e23d
000000b0: 7192 4c3d dda6 a4bc a24e 2dbd a599 acbd
000000c0: 84e0 b03c 4c1b 61bd b9ab 603d 732f 30bd
000000d0: 3b89 3ebc 38fb f03d 3324 8bbd 8c77 b43c
000000e0: ea2b 19bd 3c76 70bd f633 233d b72e 003e
000000f0: df4a 0cbb fc8d d33d 89f8 ab3d e5dc f73d
00000100: 45ad a5bc ad2f bbbd 454e f93d a1d3 993d
00000110: f66c f4bc de48 0a3d 01e7 d43d 446d cf3d
00000120: 9e4c 6cbd 4836 b13d cd4c 7dbd fba4 f2bd
00000130: ebc5 76bd e64c 1d3e d253 9a3c 69e8 2b3a
00000140: cafd 433e 89c5 23bd 3bdb 1abb e44e d0bc
00000150: 38d6 05bd 0a13 d53d 68d6 243e 5a24 293e
00000160: b142 0c3e ff66 77bd d3cc 75bd e962 443e
00000170: 76ad f03d ef12 c33d d171 c03d fcd4 ea3d
00000180: 46c5 c23d d834 7abd a44a d43c 2a07 373c
00000190: 785d bcbd 0c4b b1bc 2a55 e7bc 9297 5fbd
000001a0: e859 063e b536 a03d 1a96 443d 4c07 51bc
000001b0: 6689 633d 9bed e2bd 934c 24bc ff3b a13d
000001c0: 907e 5b3b 5c9e cf3d edc8 a13b a93d e23c
000001d0: bf0e 0dbc beb4 7e3d 7479 913d 39fb 2d3d
000001e0: eb5f 913d cdb4 d13c 336f 50bc cc2f f6bd
000001f0: 4c82 1abd cc37 61bd 8a5e d53a 0b48 863d
00000200: 6e2b 9bbd f065 8b3d 2fa0 353e f258 9b3b
00000210: 14c7 daba 062b eb3d 3c59 b0bd 9db5 b83d
00000220: d54e 5abd 9329 e73d e3c6 0f3e 198f 19be
00000230: 0f2c 6dbd cd1a d5bd 6f48 01bd f02e 953d
00000240: 151e 243d 6efa 923c 9a18 483d 708b 8bba
00000250: b301 bf3c 84b3 f63d 966d 93bd 2652 303e
00000260: af80 f6bc 58c1 2a3d e434 40bc 659a db3d
00000270: afa6 063e 9705 1c3e 8f76 f23d 41cd e93d
00000280: fa58 97bc 650f 36bd 8bae 863d e6a7 0dbd
00000290: 591d 6ebd 5bc3 b83d 89aa bebd 2371 fdbc
000002a0: 1e10 9ebd 30af 6a3d 9637 89bd e7d5 afbd
000002b0: 1d59 803c 9d33 d33d f073 353d 2415 883d
000002c0: e3ba e23d 458c 053e afd0 d83c 6743 37bc
000002d0: be25 8f3d 10f0 413e 79c0 99bd 1493 103d
000002e0: d983 003e 6ef2 003e ee35 8e3d 994b 0d3e
000002f0: 578a 453e 5ccb 97bd 6c6f 0f3e 05c4 273e
00000300: 5c30 ee3d e7c9 993e fcd3 023e 0a4a d23d
00000310: 610a f63c 92eb 8abd c50e 6e3e 2cac 8d3c
0.066904314 0.060979202 0.13567097 -0.11082809 -0.031940594 -0.0033634386 -0.061988954 0.08206414
0.09423207 -0.015636036 0.050604563 0.18317282 0.11874662 0.03743667 0.10100552 -0.04118652
-0.008512526 -0.07132527 -0.039230246 0.12963542 -0.006077369 -0.06789528 -0.013681439 -0.063328154
0.0939897 0.13862428 0.16165298 -0.005138399 -0.0046201847 0.09364615 0.09268916 0.08540064
-0.086184844 0.076280355 0.1774766 0.03640062 -0.060013317 -0.07279509 0.17660229 0.06607902
-0.070727 0.029644122 0.11166703 0.11081226 0.049944345 -0.020099098 -0.04231132 -0.08427743
0.021591432 -0.054957673 0.054851267 -0.043014 -0.011629398 0.11766666 -0.06794014 0.02202966
-0.037395395 -0.058706507 0.039844476 0.1251782 -0.0021406931 0.10329816 0.08397014 0.12102679
-0.020224223 -0.09139953 0.12173132 0.07511068 -0.029837113 0.033760898 0.10395623 0.10128263
-0.057690255 0.086529315 -0.06184082 -0.11847874 -0.060247343 0.15361366 0.018838797 0.0006557764
0.19139782 -0.039983306 -0.0023629207 -0.025428243 -0.032674998 0.10404022 0.16097414 0.16517773
0.13697316 -0.06040096 -0.06000979 0.19178356 0.11751835 0.09525096 0.09396709 0.11466405
0.09510283 -0.061085552 0.025914498 0.011171142 -0.09197515 -0.02164223 -0.028238852 -0.054587908
0.13120234 0.078229345 0.04799471 -0.012758087 0.055550955 -0.11080476 -0.010028022 0.078727715
0.0033492185 0.101376265 0.0049372823 0.027617292 -0.008609473 0.062184088 0.071032435 0.042475913
0.07098373 0.025598908 -0.012721824 -0.12020835 -0.037721917 -0.054984853 0.0016278785 0.0655671
-0.07576643 0.068065524 0.17736886 0.0047408277 -0.001669141 0.114828154 -0.0861077 0.09019015
-0.053297836 0.112872265 0.14040713 -0.14995994 -0.057903346 -0.104055025 -0.03156322 0.07284343
0.04006775 0.01794168 0.048851587 -0.0010646414 0.02331624 0.12045959 -0.07198636 0.17218837
-0.030090658 0.041688293 -0.01173136 0.10722808 0.13149522 0.15236507 0.118390195 0.11416102
-0.018475045 -0.044448275 0.0657626 -0.03458395 -0.058133457 0.09021636 -0.09309871 -0.030937737
-0.07717918 0.057295978 -0.06700055 -0.085857205 0.015667493 0.10312579 0.04430002 0.06644657
0.11070802 0.1304179 0.026466696 -0.011185504 0.069896206 0.18939233 -0.07507414 0.035296515
0.12550296 0.1259248 0.0694388 0.1379837 0.19291054 -0.074118346 0.14007348 0.1638337
0.116303176 0.30036852 0.12776178 0.10268028 0.030034246 -0.06783213 0.23247822 0.017294012

lstm.bias_hh_l0 f4 [200]
00000000: 0fd0 abbc f13f ca3b a39e 3e3d 06af 083e
00000010: 1e3f 0f3e 7420 663c 5412 b7bd 183d c83d
00000020: 099f 333d 8a65 aebd fdf7 453d e821 4a3e
00000030: 6c42 fa3d 2ee1 0a3e 69b4 d5bd 14a0 8cbd
00000040: 4a1b a23d d6fc 143e a2d7 d33c 46be 113e
00000050: 0b7d d73d a3b1 4dbd 68c3 9dbc 3cf3 153e
00000060: 0ab1 773d 5483 85bc 2e52 6a3d 3636 073e
00000070: 5b6a b73d 569f 603e 59e2 cf3b f4f5 06bd
00000080: f173 0a3e 27a7 1c3e 4a44 d93c a011 0b3c
00000090: bc0f a03d 90e5 d4bd 6ef9 c63d b653 fb3d
000000a0: 836c 683d 9566 69bd 5a5c 393e 75c0 f33c
000000b0: 68cc 2e3e ae6f 453d da24 bbbc fcb0 07be
000000c0: d34b 0a3e a9b1 bd3d 0f57 0c3e 4b8d 163e
000000d0: 4521 64bc 2a83 d63d 52e1 f6bb 1a6f 9c3c
000000e0: e684 e83b a3eb 92bd 787e a13b 67f3 bebd
000000f0: 3ecb db3d f2d0 85bd 5d4d 2e3e 565f dfbc
00000100: 3c62 f9bd 3992 2abd 20e7 a3bc f39b 8bbd
00000110: 8c52 9abd cf96 3b3e 0f5d f7bd 649d 053e
00000120: 0bfb eebc 9873 ca3d 7a7d d0bd 94f4 83bd
00000130: f4e0 8b3d 2757 57bd 2448 f8bb 2a03 003e
00000140: d64b 3a3e 6619 3abc d390 06bd b869 a83c
00000150: 9f0b fd3d 7edd 22bd 45b9 bb3c c1f2 6bbd
00000160: fb3e 163e a475 ef3d 7744 a4bd 2704 903b
00000170: 40b3 ba3d d8e6 993e 559f 87bd 4804 153d
00000180: 73f6 3ebc 372a ed3c 106f 2b3e 3b9b f43d
00000190: 4417 b3bd 41d2 a73b ee1d 83bd 9a18 e83d
000001a0: cc97 73bc c4b6 113e 30dc 41bd 022b e63b
000001b0: bb94 a83d 61c7 ed3d 883b 1f3d 5f95 efbd
000001c0: e939 033e 44ee 8d3d c296 24be 2213 933d
000001d0: faee b23c 9021 21bd df1f a2bd df06 2ebd
000001e0: 6556 953d 5d07 1ebe f559 f7bd 2642 ee3d
000001f0: 72dd 623d 9392 fabd 51cd 0ebe 71f2 223e
00000200: fa6d f7bd dd58 87bc bd13 2a3e da6b 543b
00000210: c19c 0fbe b1a3 9d3c 3288 ea3d 0d02 093e
00000220: 8778 69bd 2e60 2cbd e5a8 d03d 484a e5bc
00000230: 7b73 78bd 47d6 8a3d f8c1 9c3c cc91 063d
00000240: 40eb ad3d 2706 f53d 1e79 1dbd a105 2bbd
00000250: d037 8ebd e632 01bd a28c 3b3d 6633 233e
00000260: 76da 223e 9a60 2f3d 439e c2bd 372a 013e
00000270: a262 633b 3786 143e e1f3 1f3e 0e04 fd3c
00000280: 308f b7bd 8d10 a23c 65d5 e23d 26b6 62bd
00000290: 7697 923d 7b5c 4dbd f9b2 e43d 4a79 363d
000002a0: 6eb2 fa3b cf50 82bd 98be 833d d25e d03b
000002b0: d4da 02bc bdc2 583d 23eb 0d3d f4a2 7b3d
000002c0: a32b a03d b13d 753e 5abb c93d d484 2d3e
000002d0: 236a 453e 8b75 9cbc 6fe0 1a3e cb90 eebb
000002e0: d652 f43d 5d02 02bd 701a 093e 68c7 60bc
000002f0: 6eb4 533d 5cd0 c03d 753d 63bd 3ddf 1e3e
00000300: 105e 383d e82b 763e 698a 7fbc d381 3dbb
00000310: 355f d23c f6a5 d9bd acc7 f13a 83de d0bd
-0.020973234 0.006172173 0.046538007 0.13348016 0.13988921 0.014045823 -0.08939043 0.09777278
0.04385284 -0.08515461 0.048332203 0.19739497 0.122197 0.13562462 -0.10434801 -0.0686647
0.07915361 0.14549574 0.025859658 0.1423274 0.10521897 -0.050218236 -0.019258216 0.14643568
0.060471572 -0.016297974 0.05720728 0.13204274 0.089558326 0.21935782 0.0063441214 -0.032949403
0.1352079 0.15298139 0.02652182 0.008488089 0.07815501 -0.10395348 0.09715544 0.12271826
0.05674411 -0.056982595 0.18101636 0.029754857 0.17070162 0.04820221 -0.02284472 -0.13251108
0.13505487 0.092624016 0.13705085 0.14702336 -0.013923948 0.10474236 -0.0075341845 0.019095946
0.007095921 -0.071738504 0.0049284063 -0.09323769 0.10732125 -0.06533994 0.17021699 -0.02726714
-0.1217694 -0.041643355 -0.02000767 -0.06816854 -0.07535276 0.18319248 -0.120782964 0.13048321
-0.029172441 0.09885329 -0.10180183 -0.06443134 0.06830016 -0.05257335 -0.007576959 0.12501207
0.18192992 -0.0113585945 -0.03285296 0.020558223 0.12355732 -0.039762013 0.022915492 -0.057604555
0.14672463 0.1169236 -0.08020871 0.0043950262 0.091162205 0.30058932 -0.06622187 0.036381036
-0.011655438 0.028950794 0.16741586 0.1194367 -0.08744672 0.0051214998 -0.06402193 0.113328174
-0.014867734 0.14229876 -0.047329128 0.00702417 0.08231493 0.11610294 0.038875133 -0.11698412
0.1281506 0.06930211 -0.16073135 0.07181384 0.021842469 -0.03933865 -0.07916235 -0.04248702
0.07291869 -0.15432496 -0.12077705 0.116337106 0.055386968 -0.12234988 -0.1394551 0.15912797
-0.12081523 -0.016521866 0.16609092 0.0032412917 -0.1402464 0.019243093 0.114517584 0.13379689
-0.05699971 -0.04208391 0.10188464 -0.027989522 -0.060657006 0.067791514 0.01913546 0.032853886
0.08492136 0.11964064 -0.038445584 -0.041753415 -0.06944239 -0.03154268 0.045788415 0.15937576
0.15903649 0.042816736 -0.09502842 0.1261376 0.003469624 0.14504324 0.15620376 0.030885722
-0.08962858 0.019783283 0.11075858 -0.05534949 0.07157795 -0.050137024 0.11166949 0.044549264
0.007650665 -0.06363069 0.06432837 0.0063589597 -0.007986743 0.052920092 0.034648072 0.0614347
0.07820823 0.23949315 0.098501876 0.16945201 0.19278769 -0.019099018 0.15124677 -0.0072804443
0.11929862 -0.031740535 0.13388991 -0.013719417 0.051685743 0.094147414 -0.055478532 0.15514846
0.04501158 0.24040186 -0.015596964 -0.0028916493 0.025680164 -0.10627358 0.0018446348 -0.10198691

lstm.weight_ih_l1 f4 [200, 50]
00000000: 30d9 ac3d 94ea 4bbd 0737 27be 4fc2 60bd
00000010: d8f5 3e3d b4c6 d33d 1199 863d b293 d73d
00000020: 1a50 193e 6f8c 84bc b352 8ebb db7b 083e
00000030: 6a35 bebc a7e4 043d 86c8 26bd efaf 88bd
00000040: 2a31 8ebd 442c 4a3d 1b08 073d 563f bd3c
00000050: 2beb 943d 40b5 9c3d ad53 e1bc 9911 c9bd
00000060: 6b17 4e3d ce0f 44ba 45aa d8bc 799b 30bb
00000070: 9b1b 5ebc fc65 9f3d 4c57 f93c 29a6 a93d
00000080: 6cbd 803d e8e4 69bd 0953 93bd d831 c4bb
00000090: fcd1 a0bd 3aa0 a53d a514 b33d e994 00bd
000000a0: c89b bb3d f2e4 553d 9118 803d 2438 be3d
000000b0: 05df 933d 9338 c03d 0ba0 963c c5c7 bd3d
000000c0: 3c33 b53d 6b80 983d 35e9 e1bd fc58 7dbe
000000d0: f4a2 4bbe cc56 acbd 2497 933d c762 803d
000000e0: f70e b3bd fa99 3ebe 46e2 143e b042 2a3e
000000f0: cbc5 e0bc 7afa 19bc 769f c2bd e20b ffbd
00000100: c0b7 1dbc 53c0 67bc 5799 4cbe af22 b83d
00000110: 7890 0a3e ed68 2a3e 7512 293e 3f08 f9bd
00000120: dd9b 2ebe a31d 6a3d de05 f83d cdfe 1cbe
00000130: 80aa 8d3d 0c33 adbd 1f81 47be 1c99 71be
00000140: 60b6 283e 449c 203e 8766 00bd 0557 2f3e
00000150: 4f04 bbbd 9609 ac3b 3c06 c53d 1d73 643c
00000160: 5eea 153e d5b9 14be cc51 89bb 1b40 5dbd
00000170: 1715 f1bd 8764 a03d 7e77 bb3d 27ea 983b
00000180: 6147 d53d 307a 2b3e 9b78 b43d 23cb 6bbb
00000190: d628 a43c 3ee5 c93c aec4 193a de3b f2bd
000001a0: c34c 013e ef36 b5bd 6866 0c3e 0cdd d0bd
000001b0: bbdb 0c3e fedd f8bd 084b c8bd 186e 41bb
000001c0: 1960 383d 6e62 4bbc 8c36 44bd ade1 943c
000001d0: 9b45 8c3d 28d7 e6bd 689b 2e3e 70cb 0e3d
000001e0: 9ae1 bc3c 03b2 32bc 99f9 ad3d 29d5 83bd
000001f0: 54b9 00bd 4a6c 8dbd e8d1 a23d dabb b8bd
00000200: 241e d2bd 4fa4 abbc 332b 87bc 3efe 2cbd
00000210: dc55 6ebd f645 0b3e d36b 9d3c 7648 87bd
00000220: fb46 973d 9ef6 613c d2a6 ae3d 3708 27be
00000230: a131 adbd 8590 abbd 3979 b73d c453 543c
00000240: 67a8 3f3d 8067 ed3d 24f2 a33d dc85 923d
00000250: 8393 193d 227c a8bd 6538 edbd 03e1 24be
00000260: f62a a43d 0248 45be 3e37 0ebd 9ee9 363e
00000270: 5dca 653d 5d91 5fbe ca3b 943d 4c77 073e
00000280: aba0 fb3c a2f0 28bd 5a2f 9dbd 2d38 47bc
00000290: 6ced 663d 6c7b afbb 531a 7bbd cbb0 31be
000002a0: 55fc 5f3d 8bca c53d 71b6 33bc 357b 44bd
000002b0: abaa 4cbe 6323 ab3d c338 ecbd 8725 483d
000002c0: 9c2a c0bc 11e8 98bd a82d d1bd 97cc f8bd
000002d0: b83b e0bc 2558 793e 3534 59bd d1b9 263e
000002e0: 7865 4a3e 863d ae3d af8c 1e3d 2897 70bd
000002f0: 47ed 1f3e c30f abbd 9adb c0bd 68e1 a63d
00000300: 7be3 aebd df4a 5d3e 38cd a5bd 9b2e 7dbd
00000310: 2185 1d3e 5252 143d 176a 403b 0f97 ff3d
00000320: bb59 4d3d aa4f 28bd 123d 35bc a07f 173c
00000330: b9f6 723e 4540 b13d c201 86bd c046 73bd
00000340: 2c61 033d 1ba0 603d daba dd3d 5567 9a3c
00000350: a371 be3d 4456 ca3d 2dee 843c 3f4b f23d
00000360: 0a77 88bd 804b 5ebe adbf 84bd 7f54 c23d
00000370: 7e24 303e e1a2 ac3d 5195 99bc e419 b93d
00000380: 768f e2bd 5f0c 43bd b96f 07be e31a 403c
00000390: 5d9e 28be c2ca b03b 20f3 a8bb e7f2 5cbd
000003a0: ee4a d6bd 7d15 1f3e 33fe adbd f090 6a3d
000003b0: c6bf 15be 0083 3abe 567b 5b3e ab0d efbd
000003c0: a72e efbc b834 c0bc c2ef d53d 2b29 613e
000003d0: 5039 6b3e 3279 213e 0f8c 623b 6d2e 253c
000003e0: feea 293c ddc3 f8bd e751 9fbd eef1 3fbe
000003f0: 6c65 993d 74c5 55bd 2cce d1bd 0ce2 3e3e
0.08439863 -0.049784258 -0.16329585 -0.054872807 0.046621174 0.10340634 0.06572164 0.105262175
0.14971963 -0.016180245 -0.0043433546 0.13328497 -0.02321883 0.032444622 -0.040718578 -0.06674182
-0.06942971 0.04935862 0.032966714 0.02310149 0.07271417 0.07651758 -0.02750572 -0.098178096
0.050315302 -0.0007479162 -0.026448378 -0.0026948138 -0.013556386 0.07783124 0.030437134 0.08283646
0.06286129 -0.057103068 -0.07193572 -0.005987387 -0.07852551 0.080872014 0.08744172 -0.03139201
0.09160572 0.052220292 0.06254686 0.09288052 0.07220272 0.09385791 0.018386861 0.09266619
0.08847663 0.07446369 -0.11030809 -0.24740976 -0.1988638 -0.08414993 0.07206562 0.0626884
-0.08743089 -0.18613425 0.14539441 0.16627002 -0.027438065 -0.009398097 -0.09503071 -0.12453438
-0.009626329 -0.014144975 -0.1998037 0.0899099 0.13531673 0.16641589 0.16510947 -0.12159776
-0.17051645 0.05715717 0.12110494 -0.15331574 0.06917286 -0.08457002 -0.1948285 -0.23593563
0.1647582 0.1568461 -0.031347778 0.17123039 -0.09131681 0.005250166 0.0962033 0.013943461
0.14640185 -0.14524014 -0.004190659 -0.054016214 -0.11771601 0.07831674 0.09153651 0.004666585
0.10414005 0.1674583 0.08812066 -0.0035979233 0.020039003 0.024645444 0.00058657944 -0.11827825
0.12626939 -0.088483684 0.1371094 -0.10198411 0.13755696 -0.12151717 -0.09779936 -0.0029515084
0.04501352 -0.012413604 -0.047903582 0.018174017 0.06849214 -0.112715065 0.1705147 0.034861982
0.023056794 -0.010906699 0.084948726 -0.064371414 -0.031426743 -0.0690542 0.07950193 -0.09020205
-0.10259655 -0.020952372 -0.016500091 -0.04223465 -0.05818735 0.13600907 0.019216454 -0.06605618
0.07386585 0.013791708 0.08527912 -0.16311727 -0.084567316 -0.08377174 0.08958668 0.012959424
0.04679146 0.11592007 0.08005169 0.07154438 0.037494194 -0.082268015 -0.11583022 -0.1610146
0.08016007 -0.1926575 -0.03472065 0.17862555 0.05610119 -0.21832795 0.07237966 0.13229102
0.03071626 -0.04124511 -0.07675047 -0.012159389 0.056378767 -0.005355289 -0.0613044 -0.17352597
0.054684002 0.09657773 -0.01096879 -0.047969062 -0.1998698 0.08356359 -0.11534264 0.048863914
-0.023457818 -0.07466138 -0.10213786 -0.121483974 -0.027372226 0.2435003 -0.053028304 0.16281821
0.1976527 0.085078284 0.038708385 -0.058737904 0.15617858 -0.08352616 -0.09416886 0.081484616
-0.08539482 0.21610592 -0.08095783 -0.061812025 0.15382816 0.03621132 0.002936011 0.12479984
0.0501344 -0.0410916 -0.011061924 0.009246737 0.2372693 0.086548366 -0.06543304 -0.059393644
0.032075092 0.05484019 0.10826655 0.0188481 0.09299018 0.09879735 0.016226852 0.11830758
-0.0666333 -0.21708488 -0.06481872 0.094887726 0.1720142 0.08429504 -0.018747957 0.09038141
-0.11062519 -0.04761922 -0.13226213 0.01172516 -0.16466661 0.0053952644 -0.005155936 -0.053942587
-0.104635105 0.15535541 -0.0849575 0.05726713 -0.14623937 -0.18214035 0.21433768 -0.11672529
-0.02919705 -0.023462638 0.10446121 0.2198836 0.22971082 0.15768889 0.0034568345 0.01008187
0.010370968 -0.12146733 -0.077792935 -0.18744633 0.07490048 -0.05219026 -0.10244402 0.18640918

lstm.weight_hh_l1 f4 [200, 50]
00000000: 42f6 a03c 5238 743c 6320 81bd a7f5 be3d
00000010: 20d5 17bb e54a fa3d 81a8 92bd 01d3 cebd
00000020: 9db2 9ebd 03e0 8fbd 0c01 a2bd a093 733d
00000030: 74f1 043e a036 abbd 3248 f9bd 40db 043d
00000040: b6a6 23bd 107f 8d3d 0c77 d13d 4d07 0c3e
00000050: b222 07ba fd26 d3bd 3499 7ebd 3e2f c33d
00000060: abe3 8cbd e0f2 353d 22e7 9c3d ce2c c43d
00000070: 3ce6 ad3d 2f86 a2bd a826 ab3b ba6f 76bc
00000080: 2e82 8f3d 8bc2 283d 9913 e3bc ce81 e6bd
00000090: 2623 613d 9087 06be 85b4 123e 27b4 e4bd
000000a0: 3a5f 83bd cc02 9e3d 80ee 4f3d fa50 0fbc
000000b0: 4d18 17be c8ed bf3d fef5 883c 07fc e33d
000000c0: 64a2 e7bc 30f5 85bd 5479 46bd 45cf 9cbd
000000d0: f42b 03be 7518 1b3d e5fc 7abb 4ec9 a7bd
000000e0: 423c 95bb 65c6 003d 3a7a b0bd eae5 2fbe
000000f0: 8438 99bd a817 a9bd dd51 9bbd 1ab2 21be
00000100: 4660 353d d812 e33d 5d3a 363d be6a 11be
00000110: c620 ef3d 8028 03bd c2dd 943c 5fb7 f63c
00000120: 4f16 9fbc 661e 3c3e 81be 85bd 8586 603d
00000130: 6c1e 6c3b 1380 fbbc cc21 1ebe 7a93 28be
00000140: 085c 473d 283f fc3d 1526 2a3e ec6d 42be
00000150: ddc8 edbd ddb3 91bd e3cc 433e 0547 5c3d
00000160: 1341 ce3d d605 27be 3f11 b83d 5ce6 29bd
00000170: 6eb3 18bc ee1b 5ebe 675f 523d a2da d2bd
00000180: 7fcd c8bd f1f2 173e ab29 963d 4e39 203e
00000190: ae90 5ebd 06f2 03be 5bcc 453d 3944 a2bc
000001a0: af6e 08be d498 8e3d a2d5 13be 7d45 df3c
000001b0: 5be5 e03b fc2c a53d 035d 0ebe eecd c6bd
000001c0: ca2d acbd 8f91 90bd 4f18 3cbd 8fe8 a9bd
000001d0: f64c 89bd 2451 b7bd 3b0b 133d e454 16bc
000001e0: 60f9 54bc c9ab 61bc 47af d6bd 8ab8 10bd
000001f0: d94b f03c 10ff 653d 18b0 94bd 0693 5cbd
00000200: e746 77bc 3aca 7cbc c960 11be d41e 9c3b
00000210: 2035 9f3c 6bbf eb3d a580 153e 48d7 743d
00000220: 5f4e af3d 82ca acbc 1c18 7a3d da87 1c3e
00000230: 1aad 06bc 183e 98bd 0f32 10bd bc7f f93d
00000240: fc91 d73c f1e6 9c3d c48d 24bd 9503 f7bd
00000250: 785b 6b3c 6734 18be 63c8 273e 1e2b a23d
00000260: 45af 7a3b 3686 cf3d 3090 1fbe 0ec8 32bd
00000270: 331b d43d 747b c53d 4010 fe3d b6a1 32bd
00000280: 063d fdbd fcd5 7c3d c62f 023e 861d d2bb
00000290: a6c5 e23c a776 67bd 94a7 04bd a347 febd
000002a0: e259 61bc 051c e9bb a84c 5bbd 80e0 3d3d
000002b0: 5239 d6bd 267f 383e 775e 98bd 160a a9bd
000002c0: e83d 25be d419 94bd 4386 3c3d c9c6 30bd
000002d0: df3b cf3d 32b2 413e 75e9 133e 3801 223d
000002e0: cd65 6fbd fa18 b4bc 3dfc 283e 61bd 553d
000002f0: 9edf 093e 5a54 15bd f8cd fb3d 8526 2cbb
00000300: 2c00 20be 5183 12bd 92a4 f9bd 7792 b53d
00000310: 83b8 db3d 657f 6abd c0ab 313d aa07 523c
00000320: 9bee c13c 4191 a23d 748d 1a3d 719a 8bbd
00000330: 5e6f 293d 6974 4fbe 11b8 e33d d07a b63d
00000340: 6f5d 813d 0d7c cebc d15e 48be af89 e9bd
00000350: a606 8ebd 9bb5 253e dbe9 a1bc 2bcb 1e3e
00000360: 1d33 3f3c d120 193d b1c3 e3bd dd85 c53d
00000370: 4458 0d3e c09a 22be 3b0f 4e3d 785e 4e3d
00000380: 2cfe 693e 01e4 d0bd c4b9 5c3d 3a70 16be
00000390: 3841 76bc b036 e8bd 2c71 0fbe 5621 5a3d
000003a0: 55eb 813e ecb3 b7bc f383 2fbe a110 d13c
000003b0: bc67 973c 1750 8abc 0ff3 d9bb 1d6a b1bd
000003c0: a6a2 8a3d adc8 37bd 8b36 fbbc 005e db3c
000003d0: 2ae4 94bd f5f6 a73b 4c99 203d 3f6d 4fbe
000003e0: 1001 923d 8dc6 08bd 02e5 1f3d b6fe afbd
000003f0: 5089 ecbd c366 1dbe 1c11 9cbc fc88 c9bd
0.019648675 0.014906006 -0.063050054 0.09324198 -0.0023167804 0.12221316 -0.07161046 -0.100988396
-0.077489115 -0.07025149 -0.07910356 0.059466958 0.12982732 -0.08360028 -0.12171973 0.032435656
-0.03995391 0.06909001 0.102277845 0.1367466 -0.00051550113 -0.10310171 -0.062157825 0.09530495
-0.06879362 0.044421077 0.076612726 0.09578858 0.08491179 -0.0793575 0.005223114 -0.015041286
0.07007252 0.041201156 -0.027719306 -0.11255227 0.05496516 -0.1313765 0.14326675 -0.11167174
-0.064146474 0.07715377 0.05076456 -0.008747334 -0.14755364 0.09371525 0.01671886 0.11132055
-0.028275676 -0.065409064 -0.04845555 -0.07656721 -0.12809736 0.03786512 -0.003829771 -0.08192693
-0.0045543024 0.031439204 -0.08617063 -0.17177549 -0.074814826 -0.08256465 -0.075839736 -0.15790597
0.044281267 0.110875785 0.044489253 -0.14200875 0.11676173 -0.032021046 0.018172149 0.030116735
-0.019419817 0.18370971 -0.06530476 0.054815788 0.0036028875 -0.030700719 -0.1544258 -0.16462508
0.048671752 0.123167336 0.1661609 -0.18987244 -0.11610577 -0.07114384 0.19121127 0.053778667
0.10071006 -0.1631082 0.089876644 -0.041479453 -0.009320123 -0.21690342 0.051360514 -0.10295607
-0.0980482 0.14838769 0.07332166 0.1564686 -0.054337196 -0.12885293 0.04829059 -0.019807922
-0.13323472 0.069627434 -0.14436963 0.027254814 0.006863279 0.08065221 -0.13902669 -0.09707247
-0.08407171 -0.07059013 -0.04592162 -0.0829631 -0.06704132 -0.08951023 0.035899382 -0.009175513
-0.012998909 -0.013773867 -0.1048265 -0.03533224 0.029333042 0.05615145 -0.0726015 -0.05385115
-0.015092588 -0.015429074 -0.14197077 0.004764417 0.019434512 0.115111195 0.14599855 0.05977562
0.0855987 -0.021092657 0.06105815 0.15286198 -0.008219982 -0.074337184 -0.03520399 0.121825665
0.026314728 0.07661236 -0.04017426 -0.1206123 0.01436507 -0.1486374 0.16385035 0.0791838
0.0038251441 0.101330206 -0.15582347 -0.04364782 0.1035675 0.096426874 0.12405443 -0.04361125
-0.12365155 0.06172751 0.12713537 -0.006412211 0.027682137 -0.05650964 -0.032386377 -0.12416007
-0.01375434 -0.007113936 -0.053539902 0.046356678 -0.10460152 0.18017253 -0.07439893 -0.08253877
-0.16136897 -0.07231489 0.04602648 -0.043158326 0.101188414 0.18915632 0.14444526 0.039551944
-0.058446694 -0.021984566 0.16502471 0.05218256 0.1346421 -0.036457397 0.12295145 -0.0026268077
-0.15625066 -0.035769764 -0.121895924 0.088658266 0.10728552 -0.0572504 0.043376684 0.01281921
0.023673346 0.07937861 0.037732556 -0.06816567 0.041365974 -0.2025925 0.11119092 0.089101434
0.06316649 -0.025205636 -0.1956742 -0.11403214 -0.06934862 0.16182558 -0.019764831 0.1550719
0.011669901 0.03738481 -0.111213095 0.09644673 0.13803202 -0.15879345 0.050307494 0.05038306
0.22850865 -0.10199738 0.053888097 -0.14691249 -0.015030198 -0.11338556 -0.14008015 0.053254448
0.25374857 -0.02242466 -0.17140178 0.025520625 0.018482082 -0.016883893 -0.0066512893 -0.086628176
0.06769304 -0.044869114 -0.030665657 0.026778221 -0.07270081 0.005125875 0.039208695 -0.20256518
0.07129109 -0.033392478 0.03903676 -0.08593504 -0.11549628 -0.15371232 -0.019051127 -0.09840581

lstm.bias_ih_l1 f4 [200]
00000000: 2b1f eebd c1af 353e 42f3 3ebd fdad 7abc
00000010: aec0 1ebd 3e26 ea3d 6997 ddbc 77bf 57bd
00000020: a139 7c3d 613b 8f3c 4895 79bc 140a ec3d
00000030: 463b 893d 1672 b23d 8e87 b53d 0a22 533d
00000040: 2056 3fbb f4f4 42bb 02fc c5bd 5a0c 2a3e
00000050: 550e c43d 0265 133e db7c 333d 59a4 f03d
00000060: f2c7 e6bd fad7 e3bd 257f b03d 221f dabd
00000070: 57e3 123c 7705 3a3e 30d0 c3bd 2c4c d53c
00000080: 450e 173e fe12 483c bef1 a83d 05eb 4b3d
00000090: 731b 2fbd e279 983d 78db 80bd daf0 903a
000000a0: ad98 8f3d 6473 98bd e068 523d 6383 9a3d
000000b0: d75a dc3c cd2f b8bc 246b bcbd 9904 053e
000000c0: 2e43 ef3d 595e fd3d 92f3 eabd d28c 4b3c
000000d0: 14dd f53d ec82 3d3d 17f2 293e 1ec4 9f3d
000000e0: a695 153e 9e27 d9bc bb45 90bd 12ec 55bd
000000f0: 2f4b 813d bd55 d4bd d639 3b3e 62ba 95bd
00000100: 7850 ec3d 1634 e53c d4cf 973d df13 bdbc
00000110: 316c d23d 09c9 2f3d 5ec4 ee3d 3b4e edbd
00000120: 6a52 ffbc 26d4 afbc 5ec0 103d 88ee 033d
00000130: 75a3 44bd af10 5bbb 341f 703d 9d9f 1a3e
00000140: 0763 b8bd d7f0 8f3d 30a7 953c dafb 943d
00000150: 90b0 453d f121 ff3d 4c79 f33d 570b f63d
00000160: 2fbd f0bb 759f b9bb c07d 883d 71d2 26bd
00000170: 2d32 783c 1463 ec3d fcb9 c0bd f97f 0e3d
00000180: abfa 7dbd 332a 7e3e 3f7c f23c 5257 a6ba
00000190: e0b5 3b3d b8cd 9dbc 8b38 5bbd 9511 913d
000001a0: 9ef9 08be 773b 80bd 5a0e 903d a636 6f3c
000001b0: 8365 7abd e506 3dbd 638e 053e 3672 d0bc
000001c0: c7b2 a63d 4e9a 20bd d2a9 afbd afe1 933d
000001d0: 293c 6b3d a619 e7bc 207b f93d 9d2f f83d
000001e0: 2f35 0e3e a428 02be 9cee 963d 5a5c d03d
000001f0: da1e ce3d b1f6 8aba 8277 84bc 5257 4dbd
00000200: 9322 aa3d d340 f63d ec89 dcbd 8ccb 07be
00000210: b95a 013e 65fe 0bbe 3cca e0bd 84a6 a5bd
00000220: c3d1 99bd 4d45 0abc e129 613d 5504 acbd
00000230: fcd9 b33d c198 25bd 3c43 d93d cc31 03be
00000240: 05cc 033d fdc8 84bd ff89 0abb cc9a f4bd
00000250: 6442 41bc 32a7 6b3d 6600 99bd 2888 603e
00000260: 0e30 033e fc78 cf3d 66c3 d2bc 6883 203e
00000270: 02ee 013e 8814 803e e245 673d bcf3 5abd
00000280: e59a 203e d7b4 3a3d 4e85 333e 6c1d 03bd
00000290: 5278 87bd 87f7 a13a 8962 20bd f07b b43d
000002a0: 914e aabd 20e6 f8bc 3bb6 dc3d 33ed 1c3e
000002b0: ef7e 6d3d 3025 ee3d 7244 71bd d5cd b93d
000002c0: 1abf 58bd 1d97 d83d 461c f53d ff88 46bd
000002d0: c349 15bd 2a2a 403e 3cb9 763c 5af6 cebd
000002e0: 3485 223e 377a 89bb a9d4 a8bd 8815 243d
000002f0: 9d79 8f3c ad90 313e 1200 d13c e03f 98bd
00000300: d8ab 63bc 5aff 4b3e ce4e c03d 9d28 083e
00000310: 758a aabd da60 643e d1f9 173e 264a b83d
-0.116270386 0.17742826 -0.046618707 -0.015300271 -0.038757972 0.11433075 -0.027049737 -0.05267283
0.061578397 0.017484369 -0.015233345 0.1152536 0.06700759 0.087131664 0.08863746 0.051546134
-0.0029195622 -0.0029748054 -0.09667207 0.16606274 0.09573046 0.14394 0.043820243 0.11750097
-0.11268605 -0.11125179 0.08618001 -0.10650469 0.008965335 0.18166147 -0.09561193 0.026037298
0.14751537 0.012211559 0.08249234 0.04978468 -0.042750787 0.07445122 -0.0629186 0.0011058107
0.070115425 -0.07443884 0.051369548 0.07544591 0.026898785 -0.02248373 -0.09200123 0.12990035
0.116827354 0.12371511 -0.114722386 0.012423711 0.12005058 0.046267435 0.16596256 0.07801078
0.14607868 -0.026508149 -0.0704455 -0.052227087 0.06313168 -0.10367916 0.18283781 -0.0731094
0.11538786 0.027978938 0.07412687 -0.023080764 0.10274542 0.04291633 0.11658548 -0.11587187
-0.031167228 -0.021463465 0.035339706 0.032209903 -0.048007447 -0.0033426692 0.058623508 0.1509995
-0.09003263 0.070283584 0.018268198 0.072745994 0.048264086 0.12457646 0.1188837 0.12013882
-0.007346771 -0.0056647607 0.0666461 -0.040728036 0.015148682 0.11542335 -0.09410474 0.034790013
-0.062006634 0.24820785 0.02960026 -0.0012690818 0.045827746 -0.019263133 -0.05352072 0.07083432
-0.13376471 -0.06261342 0.07033987 0.014600432 -0.061131965 -0.046149153 0.13042597 -0.025445085
0.08139568 -0.039209656 -0.085773125 0.0722078 0.05743042 -0.028210472 0.12181687 0.121184565
0.13887475 -0.12710816 0.0736973 0.10173865 0.10064478 -0.0010602084 -0.016170267 -0.050132103
0.08307376 0.12024083 -0.10768494 -0.1326124 0.12632264 -0.13671263 -0.10976073 -0.08088401
-0.07510712 -0.008439374 0.05497158 -0.08399264 0.087818116 -0.04042888 0.10608527 -0.12811965
0.03217699 -0.06483648 -0.002113938 -0.11943588 -0.011795614 0.057532497 -0.07470779 0.2192694
0.128113 0.10130498 -0.025727939 0.15675128 0.12688449 0.25015664 0.05646313 -0.0534551
0.15684088 0.04558262 0.1753132 -0.03201048 -0.06614746 0.0012357094 -0.03915647 0.08812702
-0.083157666 -0.03038317 0.10776945 0.1532486 0.05798238 0.11628187 -0.058903165 0.090724625
-0.052916624 0.105756976 0.11968283 -0.048470493 -0.036447298 0.18766084 0.015058812 -0.101055816
0.15871125 -0.0041954773 -0.08243687 0.040059596 0.017514044 0.17340346 0.025512729 -0.07434058
-0.013895951 0.19921628 0.09390031 0.13296743 -0.0832719 0.22302571 0.14841391 0.08998518

lstm.bias_hh_l1 f4 [200]
00000000: 9dd2 db3c 2fc2 d33d 1b19 4cbb f24a 2dbd
00000010: 8c19 87bc e9c0 753d bdb3 dbbd 2169 323e
00000020: b8eb 043e a29a ea3d 5ac3 ecbc 3a65 c63d
00000030: 7f2b 0dbd 34a4 863d d44f d33d 756c 573e
00000040: d918 c6bd 5364 1b3d ee4b 71bd 20eb 5fbb
00000050: 05a5 c53d 712e 963d d3b9 f5bd 5b7c be3d
00000060: 0899 b53d e02d 2bbd 0443 0f3e 3d8c 953a
00000070: b5f8 2bbd 83ee 85bd 7574 063e 48cc a33d
00000080: ef2f a0bd 03a1 3b3d cc9b 9c3d e8bb 803d
00000090: 2a32 d3bd 0fe3 e83d b2f3 9d3d 4761 6fbd
000000a0: 0c11 103e 50a1 94bd 9653 f83c 0bf9 6dbd
000000b0: efee 593d 6b11 86bd 5409 d4bd d281 2c3d
000000c0: 50dd 8f3d b286 a13d 3857 e03d 5e33 5bbc
000000d0: a325 3f3d 0855 18bd 57f5 76bd 42ee 153e
000000e0: 3d64 7ebc 2be1 7cbc 8e02 05bd 3496 38bd
000000f0: 7dca b9bd c595 d7bd b5b3 493d 6aae 9dbd
00000100: 6683 c1bd 1948 d73d 9186 873c 1aad 92bd
00000110: b04f 043b 818e 273d 1aaf 97bd e873 2c3d
00000120: 99d6 a93c 590c 0f3d 4464 393d eef6 83bd
00000130: 9928 d4bd dd14 d6bd 8c2f de3d 10c1 193c
00000140: 6bb4 c8bd 9dd1 303d f2ac 81bd 63f6 4ebd
00000150: 68b8 c23c f3a7 fb3c 6ff2 153e 171f d13d
00000160: df71 92bd d432 3b3d 0066 463c cd95 aa3c
00000170: 25e8 c9bd 5655 d73d 3502 0d3e 8f1e e93d
00000180: 0c19 8b3d 878c d1bc 6c5f f63d bfac 293e
00000190: 7964 d0bb d026 bdbd d7f8 643d 367d 663d
000001a0: 2b28 efbc 1481 bcbd 3aa9 ef3c 4bf0 e53c
000001b0: 410e a93d 014e 6cbd 9d78 b93c 2dd5 47bd
000001c0: e15a 97bd 405c 6a3d 7094 d5bb 9c04 013d
000001d0: be0f aebc 3629 b3bd 2d0a cebc 6d01 e13d
000001e0: 0142 933d cf48 a53b eb30 493c a2b8 f23d
000001f0: 968c ea3c 89d8 a0bd 23f7 06bd 144f 423d
00000200: b7eb 0fbd 20cf 06bd 9043 fabd 3a62 c13d
00000210: d6e8 423c 2764 d83c 4ebf 94bd b6eb b73d
00000220: 87f1 f23d 52d9 f03d 6f16 0f3d e56b 13bd
00000230: 74a4 3cbd fbb4 cfbd 5c62 febd b33d 39bd
00000240: 4b9f d7bd b8c2 06be 6982 083d 70da d93d
00000250: f677 5abc de93 0bbd fea5 833d 5d51 863d
00000260: ffe5 ee3d 9be1 223e 25eb 473e b5f7 9dbd
00000270: dbf0 8b3c 50a3 583e 868d 09bd b281 babd
00000280: 6f04 8ebd d482 243e 2253 9abd 18df 1fbd
00000290: 4274 a8bd c964 8c3c d05b b83d 53e6 42bd
000002a0: e076 713d 5c04 c63d c121 9cbd da1a 4e3d
000002b0: 4b79 efbd 8fec e5bc 6da2 ec3d b28c 56bc
000002c0: 2d90 9dbc 741a 3fbd 4668 e5bd 8bd0 033e
000002d0: 1ab4 32bc fe83 433c b1ff 09bd 5760 29bd
000002e0: dd7d 79bd 89d5 bcbd a709 96bd 0466 0f3e
000002f0: e09c 733d dde0 e63d bcbd f93d 4a19 f13d
00000300: 613a 93bd 8ad6 4d3e df74 71bc 875e fd3d
00000310: f250 33bc 3c2a ab3e 3d04 023e 05a3 733e
0.026833827 0.10339772 -0.0031142894 -0.0423078 -0.016491674 0.059998427 -0.10727642 0.17422916
0.12980545 0.11455275 -0.028901745 0.09687276 -0.03446531 0.06574288 0.103179604 0.21037467
-0.09672708 0.037937474 -0.058910303 -0.0034167245 0.096506156 0.07333077 -0.11998334 0.09301063
0.08867079 -0.041791797 0.13990408 0.0011409592 -0.041985232 -0.06539633 0.13130362 0.07997948
-0.078216426 0.04580785 0.076469034 0.0628584 -0.103123024 0.11371433 0.07712497 -0.05844238
0.14069003 -0.072573304 0.030313294 -0.058098834 0.05320638 -0.06546291 -0.10353342 0.042115994
0.07024634 0.07887019 0.10954136 -0.013378946 0.046666753 -0.037190467 -0.060292568 0.1464167
-0.015526828 -0.015434544 -0.03247314 -0.04506512 -0.09071825 -0.10526613 0.049243648 -0.076992825
-0.094488904 0.105117984 0.016543658 -0.07161923 0.00201891 0.040907387 -0.07406445 0.042102724
0.020732211 0.034923885 0.045261636 -0.064435825 -0.10359306 -0.10453198 0.108489126 0.009384409
-0.09800037 0.043168653 -0.06331815 -0.05052794 0.023769572 0.030719733 0.14643262 0.10211008
-0.071506254 0.04570277 0.01210928 0.020823384 -0.09858731 0.105143234 0.13770373 0.11382782
0.06791887 -0.025579704 0.12029919 0.16569804 -0.0063596335 -0.092359185 0.055901375 0.056271754
-0.029193958 -0.09204307 0.029255498 0.028068682 0.08254672 -0.057691578 0.02264052 -0.048787285
-0.07390381 0.057216883 -0.0065179393 0.031498536 -0.02124774 -0.08748095 -0.025151337 0.109866
0.071903236 0.00504408 0.012279729 0.11851622 0.02863149 -0.07853801 -0.03295053 0.047438696
-0.035136905 -0.032912374 -0.12219918 0.09442563 0.011896333 0.026414944 -0.07263051 0.08980505
0.11862474 0.117602006 0.034933504 -0.035991568 -0.046055272 -0.10141941 -0.12421104 -0.045224857
-0.105284296 -0.13160217 0.033327494 0.10637367 -0.013334265 -0.034076564 0.06428145 0.065584876
0.11664962 0.15906374 0.19523294 -0.07713262 0.017082622 0.21156049 -0.033582233 -0.09106769
-0.069344394 0.16065532 -0.075353876 -0.03903112 -0.082252994 0.017137902 0.09001887 -0.047582936
0.05895126 0.096688 -0.076236255 0.050318576 -0.11693057 -0.028066901 0.11554418 -0.013095068
-0.019233787 -0.046656087 -0.11201529 0.12872522 -0.010907197 0.011933325 -0.033691112 -0.041351642
-0.06091105 -0.09220416 -0.0732606 0.1400376 0.05947578 0.11273358 0.12194392 0.11772402
-0.07188869 0.20101371 -0.014737337 0.12371545 -0.010944592 0.3343066 0.1269693 0.23792656
