IIE4123/hw3/LSTM_practice/LSTM_pretrained.pth (torch, 209599 bytes, 14 tensors)

lstm.weight_ih_l0 f4 [200, 1]
000000 c7 b1 01 be e8 27 dd 3b 76 d9 89 3d 79 53 ea bd
       -0.12665473 0.006749142 0.067309305 -0.114417024
000010 30 68 e3 bd 12 83 92 bc 22 8b 6c be 00 bb ab 3c
       -0.111038566 -0.017884765 -0.2309995 0.020963192
000020 0b 1a e1 3d 3d 90 89 be 33 25 fa bd 26 80 9e bd
       0.109912954 -0.26867858 -0.122141264 -0.07739286
000030 75 7c 16 3e ba 29 15 3d e3 58 97 be 71 f2 c6 bd
       0.14695914 0.036416747 -0.29560003 -0.09714211
000040 a3 3d 00 bd 85 77 e7 3d 27 e0 56 bd f4 4a 2c be
       -0.03130878 0.113020934 -0.052459862 -0.16825467
000050 9e ff 67 bd 5b ab 2a 3d 91 f7 2f 3d b4 45 98 3d
       -0.05664026 0.041667324 0.042960707 0.0743517
000060 66 9f 3d 3d 2c 3a ae 3d 29 7b cb bb d3 31 c7 3d
       0.046294592 0.08507189 -0.00620975 0.097263
000070 6a 36 8c 3d 7a 8b 64 bd 97 77 84 bd e6 8e 10 be
       0.06846316 -0.055797078 -0.064681225 -0.14117011
000080 d9 d6 d8 bb 18 4c ba 3d f3 da 81 be 98 37 90 3d
       -0.0066174087 0.09096545 -0.25362357 0.07041854
000090 43 8f 22 be 6a f8 78 bd 57 70 63 bd 42 c3 9c bd
       -0.15874963 -0.06078378 -0.055527057 -0.0765443
0000a0 df 6b 55 3d 7b 75 93 bd 73 29 7b bd c4 47 eb bc
       0.052104827 -0.07200142 -0.061318826 -0.028720744
0000b0 d3 fe c6 bd fe 21 8b 3d 01 81 fe 3c 54 b9 90 be
       -0.097165726 0.06793593 0.031067373 -0.28266394
0000c0 8b df e0 bb 1a 29 b7 bd f5 f8 78 3d 3a bf 2f bb
       -0.006862586 -0.089433864 0.0607843 -0.002681686
0000d0 42 2f 9a 3d cb ac d5 3d 9e fb 5f be 92 0e 85 3e
       0.07528545 0.10433348 -0.21873328 0.2598768
0000e0 a2 9a 24 3d f9 45 ed bd 45 63 ab 3d f6 23 80 bd
       0.04018653 -0.11585612 0.083685435 -0.06256859
0000f0 b1 5e 36 3e 04 fa 9f bd f0 4b fa 3c b1 e7 38 3e
       0.1780956 -0.078113586 0.030553788 0.18057133
000100 fd 96 05 be 55 b5 7d bd 25 87 1b 3d d2 b0 c8 bd
       -0.13045879 -0.06194051 0.03797068 -0.09799351
000110 3c 7d 8b bd a6 41 d7 bd 50 14 25 3e e0 f9 07 bd
       -0.06810996 -0.10510568 0.1612103 -0.033197284
000120 af 40 a6 bd e5 71 86 3d 46 6a 74 be 9e b6 cd 3d
       -0.08117806 0.065646924 -0.23868665 0.10044597
000130 04 d3 00 be 75 4a ed bd 13 d6 bb 3d 6b 62 07 3e
       -0.12580496 -0.11586467 0.09171691 0.13221137
000140 ca 29 00 3e 6c 02 cf 3d 00 b9 15 bd 56 8d 41 bc
       0.12515941 0.10107884 -0.036553383 -0.011813482
000150 0e 29 9b bd dc 5b 07 be d2 fe 78 3b 27 02 e0 3c
       -0.0757619 -0.13218635 0.0037993682 0.027344776
000160 33 96 81 3d b2 c6 45 be b2 d0 a0 3d f6 9f 1d 3d
       0.06327476 -0.19314077 0.078523055 0.03848263
000170 9e 13 d0 bd bc dc 46 bd 01 71 1e 3e 6a 9b c8 bb
       -0.10159992 -0.048550352 0.15472795 -0.0061220424
000180 f3 f2 05 3e 15 85 ff bd 98 a0 f2 3a 11 48 72 bd
       0.13080959 -0.12476555 0.0018510995 -0.05915076
000190 f6 b4 fe bd 0a 59 ce 3b 97 e3 dd bc d2 3b 51 3d
       -0.12436859 0.0062972354 -0.027086062 0.05108244
0001a0 57 05 93 bd 23 93 89 bb 44 f8 c5 3d 33 f2 7b 3b
       -0.07178753 -0.0041984483 0.096664935 0.0038443923
0001b0 83 e7 0d 3e c9 e0 1a be 32 48 68 3c 2f 97 f4 3d
       0.13857846 -0.15124811 0.014177369 0.119428985
0001c0 91 a5 fc 3d a7 69 e3 bd df 4d e0 bd 66 d0 fe 3c
       0.12336267 -0.11104136 -0.10952353 0.031105231
0001d0 55 33 27 3d 91 d8 c9 bd 27 25 94 3d dc 11 b9 3d
       0.04082044 -0.0985576 0.07233649 0.090366095
0001e0 3c 57 84 bd 6e 5d 0d 3d c2 3e e4 3b d9 7e de bd
       -0.06461951 0.03451293 0.006965489 -0.10864038
0001f0 99 e4 0e bd bb f0 d8 bd 4e 3d 8f 3d 36 00 13 be
       -0.034885976 -0.10592791 0.06994115 -0.14355549
000200 24 e3 c1 3d 2d 3f f4 bd 7c ad 27 3e 20 de 5e 3d
       0.09467152 -0.11926112 0.16374773 0.054411054
000210 42 f9 85 3c e7 1d 98 3c 65 a7 1e 3e 75 b4 a5 bd
       0.016354207 0.018568946 0.15493543 -0.0809106
000220 2b 66 a6 bd 02 79 27 3e 88 b2 a8 3b 15 7a c8 3d
       -0.08124956 0.16354755 0.0051482357 0.0978891
000230 87 4f c4 3c 8c 06 06 bd ba 00 01 3c d7 51 e1 3d
       0.023963703 -0.032721087 0.007873708 0.11001938
000240 53 83 26 3d 30 1e f0 bd fe 8a 2d be 00 3b 0e be
       0.040652584 -0.11724508 -0.16947553 -0.13889694
000250 f2 f1 f8 bd 70 e8 b5 bb 10 67 96 bd d7 97 59 3d
       -0.121555224 -0.0055513903 -0.07343876 0.05312332
000260 3b e5 f3 3d 89 5e d4 bd c0 55 01 be 66 0f 62 3c
       0.119089566 -0.10369594 -0.12630367 0.013797617
000270 ea 13 7c bd 91 8b df bd d4 59 d6 3d c7 d3 4f be
       -0.06154243 -0.10915292 0.10466352 -0.2029563
000280 70 13 03 3d 1c 2d 24 be 42 5b 03 3d aa a9 86 bd
       0.03200096 -0.16032833 0.032069452 -0.065753296
000290 fd 32 4a be df 0c b4 3d 73 2e 76 3c 95 66 6e bc
       -0.19746013 0.087915175 0.015025723 -0.014550825
0002a0 7d a2 21 3e 84 fc a0 bd 4a 9e 2d 3e 8f da da 3d
       0.1578464 -0.078606635 0.16954914 0.10686218
0002b0 10 e3 a8 3b 17 75 26 3d 3c 71 72 be c8 e3 e1 3d
       0.005154021 0.04063901 -0.23676008 0.11029774
0002c0 0e 58 29 3d 87 af a8 bd 6c a5 57 3d 09 3f b7 bd
       0.04134374 -0.08236604 0.052647993 -0.0894757
0002d0 a0 bc c0 bd 34 25 c5 bd 39 0a 97 bd 6e 18 ea 3d
       -0.09410977 -0.096262366 -0.07374997 0.11430441
0002e0 c7 fb 43 be 70 10 26 be 1f 69 02 be fc 50 36 be
       -0.19139014 -0.16217208 -0.12735413 -0.1780433
0002f0 40 de 03 3d 8f ed 20 3d 84 e3 62 ba c7 2c 37 bd
       0.032194376 0.039289054 -0.0008655118 -0.044720437
000300 42 1e 00 be 44 af 50 3d a7 39 9c 3d 8e 23 f9 bd
       -0.12511542 0.050948396 0.07628184 -0.12164985
000310 50 25 3b 3d cc 9f 74 be 7d e0 dd 3c 51 63 1f 3e
       0.04568988 -0.23889083 0.027084583 0.1556523

lstm.weight_hh_l0 f4 [200, 50]
000000 35 56 dd bd ce bf 31 bd ff 59 7e bd 89 56 d2 bd
       -0.10807458 -0.04339581 -0.062097546 -0.102704115
000010 ef 7b 92 bc d5 e8 72 bd 2c a2 77 ba d8 be 9e 3d
       -0.017881362 -0.059304077 -0.0009446468 0.07751244
000020 29 72 9f 3d 26 ee 3d bd 55 e0 a1 3b 8f f3 c3 bc
       0.07785446 -0.046369694 0.0049400725 -0.023919849
000030 c0 41 ea 3d d8 aa a5 bc 54 71 ad bd fe 61 63 3d
       0.11438322 -0.020223066 -0.08468881 0.055513375
000040 14 8c d7 bd 07 7c e1 3d d1 ed 74 3d 1d f9 4d 3d
       -0.10524765 0.110099845 0.059797112 0.0502864
000050 88 05 89 3d 61 11 04 3d da 38 1a be 33 6e bd bd
       0.06690508 0.032243136 -0.1506075 -0.092495345
000060 f4 d2 9e 3d 5e 83 9a bd a0 c6 82 bd 52 ae e7 bd
       0.0775508 -0.075445876 -0.06385541 -0.11312546
000070 4c 7a 8c ba c0 c1 c2 bc 16 65 b2 3d ab 8e ae 3d
       -0.00107176 -0.023774028 0.08710687 0.085233055
000080 7f db 05 3d 4d 3c 3f 3c 09 5c af bd 1f c1 bc bd
       0.03268003 0.011672092 -0.08562476 -0.092165224
000090 b1 e3 dc 3d a8 84 b1 bc bb 5c d8 3d 13 44 99 bc
       0.10785616 -0.0216697 0.10564562 -0.018709218
0000a0 b7 13 74 bc 7e 17 04 bd 3e cf 0a bd 2f 52 8c bd
       -0.0148972785 -0.032248966 -0.033889048 -0.06851613
0000b0 6b f4 72 3d a7 12 9a bd 6f 5f eb 3d 13 f4 e1 3d
       0.059315126 -0.07523089 0.11492812 0.110328816
0000c0 bf d2 91 bd 2e 67 8d 3c ad 7a 2e bc c8 a2 d9 bd
       -0.07120275 0.017261114 -0.010649365 -0.10626751
0000d0 2d 6f 6b 3d 90 36 d7 bd ad 97 60 3d 43 d2 59 3b
       0.057479072 -0.10508454 0.05483215 0.0033236898
0000e0 19 e7 1a 3e a5 19 f5 3c 87 a9 c3 3d ba 5e f8 bd
       0.1512722 0.029919455 0.09553819 -0.12127443
0000f0 11 36 1a 3d b1 7d 2f 3d 65 7a a0 bd 0c 58 58 3d
       0.037649218 0.042844478 -0.07835845 0.052818343
000100 b6 00 0f be c1 ec a7 3d e2 49 30 3d 56 97 e9 bd
       -0.13965115 0.08199454 0.04303921 -0.11405818
000110 b5 10 5b 3d bd 77 00 bb 8f 50 a9 bd f3 85 d5 bd
       0.05348273 -0.001960262 -0.082673185 -0.104259394
000120 53 bd 78 bc 3e a7 89 ba 8f 8a d2 3d 38 94 d6 3d
       -0.015181857 -0.0010502113 0.10280334 0.10477489
000130 0c fb 80 3d 91 59 a8 3d eb 22 81 bc 25 88 bf bd
       0.062978834 0.082202084 -0.01576372 -0.093521394
000140 e7 f1 b4 bd 72 ca f1 3d b0 29 ab bd d8 b2 18 be
       -0.08835202 0.118061915 -0.08357561 -0.14911973
000150 99 c2 df bd d1 58 e7 bd ca 63 30 3d c4 b4 2d bc
       -0.109257884 -0.11296237 0.043063916 -0.01060218
000160 92 ca fa 3d 95 36 02 3e ed f8 a2 3c 6a 32 bc bd
       0.122456685 0.12716134 0.019894088 -0.09189303
000170 48 24 e3 3d 76 34 25 3d 3a 18 75 3d 12 80 d7 3c
       0.110909045 0.040333234 0.059837557 0.026306186
000180 e2 c0 a5 bd e2 b4 5c bd c3 62 89 3d 7e f8 d2 bd
       -0.0809343 -0.05388344 0.067082904 -0.103013024
000190 28 9e a3 3d fa e1 3f bc 24 91 42 3d fd 16 93 bd
       0.0798915 -0.011711592 0.047501698 -0.07182119
0001a0 73 25 33 bd 6f 28 90 bd 22 36 40 3c 71 e9 a5 bd
       -0.043736886 -0.07038962 0.011731656 -0.08101166
0001b0 a0 63 8c bd 74 95 09 3d a4 57 09 be 87 e2 67 3d
       -0.068549395 0.033589795 -0.13412338 0.056612518
0001c0 7e ee e7 3d 8c 7a 32 be 3f ff 9a bc d4 7f 09 bc
       0.11324786 -0.1742956 -0.018920539 -0.008392293
0001d0 f9 5c c4 3d 51 0d 12 be 1d 57 dd 3b 7b 97 a5 3a
       0.095880456 -0.14262892 0.0067547695 0.0012633646
0001e0 c5 38 09 3e 30 6c 12 3e 36 79 a1 3d c7 e9 01 be
       0.13400562 0.14299083 0.07884447 -0.12686835
0001f0 0b ee b5 3d 0e 24 03 bd 54 cb 28 3d a6 ad aa 3d
       0.08883294 -0.032016806 0.041209534 0.08333902
000200 e9 27 5e bc f7 11 79 bd 52 c8 84 3d c5 88 21 3c
       -0.01355932 -0.06080815 0.064835206 0.009859269
000210 1b 3d 16 3d 61 6e 38 be e1 c1 d4 3d 25 37 9e bc
       0.03667937 -0.18010856 0.10388542 -0.019313404
000220 56 c0 f2 bc 3f 5e 9b 3d 67 e8 6a 3d b7 7f da 3d
       -0.029632729 0.075863354 0.057350542 0.10668891
000230 44 34 98 3d e8 ab d2 bc ee 8d cd bd fa da a7 3d
       0.07431844 -0.025716737 -0.100368366 0.08196063
000240 c7 7a 0c bd 82 17 3f bd 0f 14 37 3d 3b 4c ba 3d
       -0.034296777 -0.04665328 0.044696864 0.09096571
000250 27 9b 34 bd 9f 74 0a 3e 3c 10 61 3d b1 e1 68 be
       -0.044093277 0.1352105 0.054947123 -0.22742344
000260 5d 7e 42 bd 3b c3 a3 bd 48 21 38 bb f5 bf 0f be
       -0.04748379 -0.07996222 -0.002809601 -0.1403807
000270 e7 0e 06 be 2e 57 af 3a b4 42 00 3e 8c f7 6a 3c
       -0.13091622 0.0013377422 0.12525445 0.014341246
000280 84 7c 77 3d aa de 11 be 15 23 19 3e bf 70 0f be
       0.06042148 -0.14245096 0.14954789 -0.14007853
000290 05 ee 41 3d 0f 63 15 3d 95 b8 04 bd 67 67 e3 bd
       0.047346134 0.036471423 -0.032402594 -0.11103707
0002a0 e2 a6 97 bd 27 00 a4 bd 9c a9 41 3e a3 ef 47 3e
       -0.07404877 -0.080078416 0.18912357 0.19525008
0002b0 9e 5e d9 bd 49 52 3d bd 5a c1 21 3b 73 19 ae 3d
       -0.1061375 -0.04622105 0.0024681897 0.08500948
0002c0 e4 0d 1e be d7 ed 2a 3e d8 28 1f 3e cb 4c 15 3e
       -0.15434986 0.16692291 0.15542924 0.14580075
0002d0 c6 a8 2c 3d aa fc 19 be 88 d3 7e 3d a1 e8 25 be
       0.042153142 -0.1503779 0.06221345 -0.16202022
0002e0 5c 30 9f 3d 64 8c 40 3e 9d b3 b5 3d dc 25 33 3d
       0.07772896 0.18803555 0.08872149 0.043737277
0002f0 f4 db f0 3c 2c 61 59 bd 12 cd 95 bd b1 dd de 3b
       0.029401757 -0.053071186 -0.07314505 0.00680133
000300 f0 0d 9d 3c 11 9c 0c 3d 2b 05 00 3d a1 e8 ad 3d
       0.019171685 0.034328524 0.03125493 0.08491636
000310 0a d9 16 3b 51 51 8a 3d 89 9d d7 b8 0e 99 ec bc
       0.002301755 0.06753791 -0.00010281342 -0.028881576
000320 32 88 19 be 77 26 59 bd c3 6e 71 3b d9 8c fb bd
       -0.1499336 -0.0530152 0.00368397 -0.12282724
000330 a8 ce 3f 3e d4 e7 53 be 76 5d b2 3d 11 a4 df 3d
       0.18731177 -0.20693904 0.087092325 0.10919965
000340 c3 57 f0 3d bd ad f7 3c 66 91 8e bd dc 72 73 3c
       0.11735489 0.030234212 -0.06961326 0.014858928
000350 29 04 e3 bc f7 5f 38 be 37 c7 4e 3d 51 05 f0 3d
       -0.027711945 -0.18005358 0.050482955 0.11719764
000360 72 97 5f bc db f8 1a bd c5 92 ee 3d 13 d5 9e bd
       -0.013646947 -0.037834983 0.11649088 -0.077554844
000370 67 d2 32 3e fd d6 4a bd 13 2d bc bd e4 7d db 3c
       0.17463075 -0.049521435 -0.09188285 0.026793428
000380 43 4e 8e bd 65 c0 cf 3d 17 45 c2 3d 3b cb b8 3d
       -0.06948521 0.10144118 0.09485834 0.09023138
000390 b0 6f 10 3e 1f 51 c3 3c d9 7f b2 3d a9 b0 38 be
       0.14105105 0.023842392 0.08715791 -0.1803614
0003a0 67 5c f8 bc 23 1d d4 bd a2 8b 37 be 34 2a ce bc
       -0.030317498 -0.1035712 -0.1792436 -0.025166608
0003b0 86 a9 c8 bc 19 57 83 bd ca 1b 03 3d d8 48 02 be
       -0.024494898 -0.06413097 0.032008924 -0.127231
0003c0 75 a1 b6 3d e5 5a d8 bd 68 4b 0a bd 81 52 5e 3d
       0.08917514 -0.10564212 -0.03376332 0.0542779
0003d0 df a0 a5 bc 16 8c 80 3d 8c 97 e3 bd d6 6b d8 3d
       -0.02021831 0.06276719 -0.1111289 0.10567443
0003e0 71 52 1a be 32 db dc bc 52 0d 11 be b1 bb 2e be
       -0.15070511 -0.02695999 -0.14165238 -0.17063786
0003f0 95 29 0b be c3 4b b5 bd e1 e8 26 be 08 63 56 be
       -0.13590081 -0.08852341 -0.16299774 -0.20936215

lstm.bias_ih_l0 f4 [200]
000000 42 bd c0 bd ee e8 8a bc 19 eb cf bd d4 46 a5 bd
       -0.09411098 -0.016956773 -0.10152263 -0.0807015
000010 a9 af 1b 3e 8f 20 c9 3d d5 76 1b 3e 4a da e1 bd
       0.15203728 0.09820663 0.1518205 -0.110279635
000020 86 7c 13 3d bd 07 1d 3d de 96 d3 3d 3b f4 37 3b
       0.036007427 0.038337458 0.1033151 0.0028069157
000030 36 19 b9 3c a5 be a1 3d c5 44 09 bd 4e 4a 8f bd
       0.02259503 0.07897691 -0.03351285 -0.06996594
000040 11 c2 c6 3d 6a e6 c4 3b 2a 97 ee 3d dd 57 7b bc
       0.09704984 0.006008913 0.11649926 -0.015340772
000050 bc f7 fe 3d 9f 70 d1 3c 4c 0f 9a bd 2b 65 f1 bd
       0.12449595 0.025566397 -0.07522449 -0.117868744
000060 5d 04 6f bd 01 a3 09 3e fc d9 d1 bd 76 24 96 3d
       -0.05835377 0.13441087 -0.10246655 0.07331173
000070 56 d4 6a bd 7e 33 a6 3d 63 44 21 3e d5 67 2f bc
       -0.057331406 0.0811529 0.15748744 -0.010705908
000080 1c d1 3c bd f9 37 a7 b9 f8 35 81 bd 36 18 42 3d
       -0.04609786 -0.00031894425 -0.06309122 0.04738637
000090 b4 6e 87 bd c5 82 a5 bc d6 37 63 bd 10 00 96 bd
       -0.06612912 -0.020203957 -0.05547317 -0.07324231
0000a0 a4 35 8d 3d c3 ea 18 bd 77 bc db 3d 70 6b b2 3c
       0.06894997 -0.03733326 0.10729306 0.021779746
0000b0 0e f7 b2 bd 31 c5 54 3d a0 aa fb 3c 87 9d 96 bd
       -0.08738528 0.05194587 0.030721009 -0.07354265
0000c0 33 5b ec bd 66 63 5a 3d df 85 9a 3d 41 9e 1c bc
       -0.11540832 0.05331745 0.07545065 -0.009559215
0000d0 98 bd 49 ba b4 40 63 bd 67 27 bd 3c f1 84 4b 3b
       -0.0007695793 -0.055481628 0.023090078 0.003105458
0000e0 0f ec a5 bd 19 69 1b bd f7 61 c9 bc c1 0f a8 bd
       -0.08101665 -0.037942026 -0.024582846 -0.0820613
0000f0 55 54 53 3d 3b 66 62 3d 95 7d 09 be 4e 03 79 bd
       0.051594097 0.055273276 -0.13426812 -0.060794167
000100 96 ed e0 3d 29 5a 48 3d f0 d7 a2 bd 32 52 ec bd
       0.10982816 0.04891411 -0.07951343 -0.11539115
000110 1d e7 c1 bd 33 10 71 3d 1a a8 a4 bd 2d 1e f2 3c
       -0.094679095 0.05885334 -0.08039875 0.029555405
000120 79 97 63 3c 65 9a 29 3c 63 76 36 3e 76 df 90 bd
       0.013891094 0.010351752 0.17818598 -0.07073872
000130 40 fb 9e 3d e2 58 c6 bd 30 f3 e0 3d 2f ab 48 bd
       0.07762766 -0.09684922 0.10983884 -0.04899138
000140 aa d3 b8 3c dd c0 8a bd 6d 33 f9 3d 53 e4 6a 3d
       0.022561867 -0.06775067 0.12168012 0.057346653
000150 82 d7 87 3d 82 3b 12 3e bc 34 fa bc 09 e4 b6 bd
       0.06632902 0.14280513 -0.030542724 -0.08930213
000160 e2 79 e8 3d 6d dc f4 bd a9 b3 20 3c fe 18 d8 3d
       0.11351372 -0.119561054 0.009808459 0.10551642
000170 70 a4 a9 3d 72 54 fa 3d 0b 57 24 3e 71 e3 c0 bc
       0.08283317 0.12223138 0.1604883 -0.023545953
000180 47 a1 bb bd da 92 2f 3e 89 4f f6 bd ef 9e a9 3d
       -0.091616206 0.17145863 -0.12026889 0.08282267
000190 dc 1b 79 bd b6 87 ac 3d d7 87 b4 3c 69 17 24 be
       -0.060817584 0.08424322 0.02203743 -0.16024555
0001a0 c1 25 6b 3d f2 66 de bd d9 90 90 bd 91 af 04 3e
       0.05740905 -0.10859479 -0.070588775 0.12957598
0001b0 ee a4 d9 3b b8 2c 51 3d 1c 7a 52 bd f8 93 c9 bd
       0.0066419756 0.051068038 -0.051385984 -0.09842676
0001c0 49 c2 ef 3c a8 2f bf bd a4 a0 ef 3d 29 53 b0 3d
       0.029267447 -0.093352616 0.11700562 0.086096115
0001d0 a0 6f e0 3d 10 9d 03 3d a7 42 0d 3e 8f 49 82 bd
       0.10958791 0.03213221 0.13794957 -0.063616864
0001e0 8d 93 e6 3d a7 5c 1d 3d 3d c7 8e bd e3 d7 95 bd
       0.11258612 0.03841844 -0.069715954 -0.07316568
0001f0 e6 4d 70 bc 74 14 dc 3d 55 f7 e1 bd fb 8c 83 3d
       -0.01466701 0.107460886 -0.11033503 0.06423374
000200 ab c5 0f bd 23 54 b0 3d 98 ab e4 3c c4 73 6b 3d
       -0.03510062 0.08609798 0.027913854 0.05748345
000210 ca 0c 9d 3d 4b 43 51 bd ec b7 04 3e 59 7e 16 ba
       0.07668455 -0.051089566 0.12960786 -0.0005740873
000220 6b 06 29 3d 69 2a ee bd f5 8a f8 3d 94 3d 19 3d
       0.041265886 -0.11629183 0.12135879 0.03741224
000230 a9 ef 90 3c aa 56 d0 bd 75 a9 96 bd e7 48 94 bc
       0.017692404 -0.1017278 -0.0735654 -0.018101169
000240 60 d6 4c 3d b3 e4 ae bb 95 85 f8 bd bb 8a d3 3d
       0.05000913 -0.0053373217 -0.12134854 0.10329195
000250 9a c0 bb bd 57 da ce 3d 30 13 1c bd d4 74 c0 bd
       -0.09167595 0.10100239 -0.038104236 -0.09397283
000260 55 b5 1e 3e 4e 29 0b 3e 88 96 12 3d 19 90 38 3e
       0.1549886 0.13589975 0.03578809 0.18023719
000270 db 2a b9 3c be fb d7 3d 13 ac dc bd 64 63 62 3d
       0.022603443 0.10546063 -0.10775008 0.055270568
000280 8c 39 a1 3d 0e 4c ce 3d 2c 9e be 3d af 79 d9 3d
       0.07872304 0.100731 0.09307513 0.106189124
000290 3e a8 c3 bb 4e b0 ec bd f0 85 58 3d a4 f4 6c 3c
       -0.0059709838 -0.11557065 0.052862108 0.014462624
0002a0 27 a8 68 bd d1 3f e1 3d a5 1e 8d 3d bc aa 5e 3d
       -0.056800988 0.109985 0.068906106 0.054362044
0002b0 9e b5 d9 bc ff 98 64 bd 37 78 6d 3d 40 e1 6f bd
       -0.02657586 -0.05580997 0.057975974 -0.058564425
0002c0 81 ae 01 3e 1b fc c9 bd e0 7f 56 bc f6 05 48 3d
       0.12664224 -0.098625384 -0.013092011 0.04883381
0002d0 97 5e 36 3d 55 85 ad bd 60 b9 80 bd 3e 72 a9 3d
       0.0445238 -0.08472697 -0.062853575 0.08273743
0002e0 c3 b3 00 3e 23 62 24 bd 3b 70 8a 3d b9 fe 6e 3b
       0.12568574 -0.040132653 0.067596875 0.0036467745
0002f0 22 8b cb bd a9 db 83 bc 7a f7 fd 3d a7 28 a3 3c
       -0.09938647 -0.016095953 0.12400718 0.019916845
000300 0b 81 83 3d f3 ac a2 3d cf 5a f4 bc 65 bb 49 3d
       0.06421097 0.07943144 -0.029828457 0.04925098
000310 39 c2 42 3d c4 39 17 bd ec d6 db bc 20 01 e5 3d
       0.047548506 -0.036920324 -0.026835881 0.11181855

lstm.bias_hh_l0 f4 [200]
000000 ae 10 9d 3d 51 06 f0 3d d5 01 93 bd c7 19 bc bd
       0.07669197 0.11719955 -0.07178084 -0.09184604
000010 18 1d bd bd 58 df 2d bc 64 6f 5e bc ff 00 46 bd
       -0.09234065 -0.010612331 -0.013576362 -0.048340794
000020 d3 4e 28 3c 5f b9 8d 3c bd 60 9c 3d d2 cb d7 3d
       0.010272699 0.017300306 0.07635639 0.105369225
000030 85 c3 1c 3d aa 4a d8 3d fb e2 05 bd a6 f7 8a bc
       0.0382724 0.10561116 -0.03268717 -0.016963791
000040 78 1f 5e 3d 74 29 56 3d 9c bc a6 bd 35 d7 ae bd
       0.05422923 0.052285627 -0.08141443 -0.08537141
000050 83 a7 b5 bd 5d d3 be bb 53 69 e5 bd 9d b0 c9 3c
       -0.08869841 -0.0058235363 -0.112017296 0.024620349
000060 cb fb 87 3d bf 73 0b bd 42 d3 48 3d 29 07 0c bd
       0.066398226 -0.03404593 0.049029596 -0.034186516
000070 6a 66 b8 bd 87 b4 cf 3d 88 7d 01 3e e9 c9 33 bd
       -0.09003909 0.10141855 0.12645543 -0.04389373
000080 c2 be 10 bd 22 b3 8e 3d 31 51 69 bc ac 7c 0a bd
       -0.03533817 0.069677606 -0.014240549 -0.033810303
000090 75 3e 1d 3e eb 87 d6 bb f2 f5 cc 3d e2 ad 9a 3d
       0.15355857 -0.0065469644 0.10007848 0.07552697
0000a0 86 9e 09 be dd c8 f3 bd 8a 53 f6 3d bd b4 e9 3d
       -0.13439378 -0.11903546 0.120276526 0.11411426
0000b0 26 36 d3 3d df 69 ca 3d b9 51 12 3d 57 e4 ac 3d
       0.10313062 0.098834746 0.035722468 0.0844199
0000c0 25 87 03 3e d4 80 24 3d 34 29 9a 3d ca 4f d8 bb
       0.12844522 0.040161923 0.0752739 -0.0066013085
0000d0 c4 12 c9 bd 92 db 40 3e 8a 63 9f 3d 0a e5 0d bd
       -0.098180324 0.1883376 0.077826574 -0.034642257
0000e0 47 c8 00 3e 93 0b 8f 3d af 9e c4 bd 82 3b e3 bd
       0.125764 0.069846295 -0.09600579 -0.110953346
0000f0 79 ef 98 3d a7 95 b9 3d 86 20 0d 3e 49 63 90 bc
       0.07467551 0.09061747 0.13781938 -0.017625468
000100 25 c4 c6 bd 8c 03 03 3e 4a f8 e4 bd 8e 03 8e 3b
       -0.0970538 0.12794322 -0.1118017 0.00433392
000110 1f ac 1c 3d 8d e3 93 3d 0d 22 1f 3c 69 76 27 bc
       0.038250085 0.07221136 0.009712708 -0.010221102
000120 c1 ff bc 3b 6c 12 0b 3e 82 74 97 bd ab 5a e7 3d
       0.005767793 0.13581246 -0.07395269 0.112965904
000130 01 41 b0 bd a1 03 14 bc df 4e 83 3b 1d 98 e9 bd
       -0.086061485 -0.009034068 0.004007205 -0.114059664
000140 2a 10 b6 3d 2f ff a9 3d 5d 59 cb 3c c7 35 39 bd
       0.08889802 0.083006255 0.024822885 -0.0452173
000150 95 dc 04 3e 87 fb c7 3d e1 da 5a 3d 40 c0 1a bd
       0.1297477 0.09764772 0.053431395 -0.037781
000160 77 d4 de bd 96 09 54 bc 2a cd f7 3d 3f 16 89 bd
       -0.10880368 -0.012941739 0.12099679 -0.06693696
000170 ee 79 b0 3c a9 bd 00 bd 10 37 3e bd 40 b1 90 bd
       0.021542516 -0.031430874 -0.04643923 -0.07065058
000180 48 f9 f5 3d 7d 7d 9c 3c f1 02 9a 3d 03 be 05 3e
       0.12010437 0.019102806 0.07520092 0.13060765
000190 e1 38 38 3c 28 af f5 bd e3 0a ee 3c 05 c0 1a be
       0.01124403 -0.11996299 0.029057926 -0.15112312
0001a0 e8 23 89 3c 24 1c 2e bc ff ad 92 bd 5c d2 8e bc
       0.016740754 -0.010626826 -0.07162093 -0.017434292
0001b0 cc c6 a9 3d 52 65 20 bd 57 34 f7 bd f6 0d 38 bd
       0.082898706 -0.039159127 -0.1207053 -0.04493519
0001c0 65 86 ad 3d 53 26 ce bb 1b a8 f5 bd 23 91 fe 3c
       0.08472899 -0.0062911897 -0.11994954 0.031075066
0001d0 46 41 14 bd e2 26 0f be 85 34 a1 3d ca 61 e1 bd
       -0.036195062 -0.13979676 0.078713454 -0.1100498
0001e0 a3 a3 a7 3d 0e 65 13 3e 92 38 f5 bd 4b 2c 03 3d
       0.08185508 0.14394018 -0.119736806 0.032024663
0001f0 1d 6e 0a 3e 3d 84 f6 3d 1a fc 1f bd 10 e0 a9 3d
       0.13518567 0.12036941 -0.039058782 0.0829469
000200 96 be ac 3d 5e 77 3d 3c fc ad 04 3d 49 08 f0 bd
       0.08434789 0.011564104 0.032392487 -0.1172033
000210 0f a0 a2 bd da 80 58 bd 96 c7 fe bd 3f c9 d3 bd
       -0.07940685 -0.052857257 -0.12440412 -0.10341119
000220 f0 7a bf 3d bf 76 1c bd 03 cb c0 bd c5 80 14 be
       0.0934962 -0.038199183 -0.094137214 -0.14502247
000230 00 48 ab 3d 6f af a7 b8 f6 07 a6 bd e9 70 10 3e
       0.08363342 -7.9958576e-05 -0.08106987 0.14105572
000240 e6 00 d9 3c c7 b8 9c bd cb 01 c5 3d 51 2b 0c be
       0.026489686 -0.07652431 0.096194826 -0.13688399
000250 10 c6 01 be 94 24 91 3d fe f9 bd bd 2c 46 c2 bd
       -0.12673211 0.07087055 -0.09276198 -0.094860405
000260 e1 45 e4 3c b6 09 26 3e fd 83 de 3c f6 13 84 bd
       0.027865352 0.16214642 0.027162546 -0.0644912
000270 db 58 46 bd 1c 63 0d 3a 60 e8 53 bd 66 54 f2 bd
       -0.048424583 0.00053934916 -0.051735282 -0.11832504
000280 90 ad bf 3d 02 cf 0e be 9a 79 a5 3d 13 cd d5 3c
       0.09359276 -0.13946155 0.08079834 0.026098764
000290 e7 a8 05 3d 4f 92 21 3e 59 e2 7f bc 9c 75 4b bd
       0.03263178 0.15778469 -0.01561793 -0.049672708
0002a0 e8 25 ca 3d fd 14 ab bd 18 a4 9b 3d ee 4c 7c bd
       0.09870511 -0.083536126 0.07599658 -0.061596803
0002b0 5c 37 c4 bd a0 73 18 bd ce 98 98 bd e9 56 4a bd
       -0.095808715 -0.037219644 -0.0745102 -0.04939929
0002c0 60 2d 7a 3d 3b e4 e0 3d e1 d8 7d 3d c2 16 f0 bd
       0.06107843 0.109810315 0.06197441 -0.11723091
0002d0 b7 bb f1 bc 8b 08 11 3e 54 4a 6f bc 74 3d 47 bc
       -0.029508455 0.14163415 -0.014605124 -0.012160648
0002e0 1d 6a 9f 3c 2b 05 bc bd 5c 1f 52 bb 9b e9 a1 bd
       0.019459778 -0.09180673 -0.0032062149 -0.07905885
0002f0 ce 26 40 3d 61 0a b2 bd 50 1c 24 bd 75 b5 ba 3d
       0.046912007 -0.08693386 -0.040066063 0.091166414
000300 75 69 1b 3e a3 5d bd bd db c2 b3 3d 39 e0 aa 3d
       0.15176947 -0.092463754 0.087774 0.08343548
000310 63 9d 6a 3d a7 10 21 3e d2 6c af 3d 4b a1 7b 3d
       0.057279002 0.15729009 0.08565678 0.061433118

lstm.weight_ih_l1 f4 [200, 50]
000000 56 0a 1b be 3e ae 1c be 78 f3 e0 bd 72 71 14 be
       -0.15140662 -0.15300843 -0.10983938 -0.14496401
000010 59 64 87 bd bc a1 21 3d ac d8 2b 3d ac c9 f4 3c
       -0.06610937 0.039460883 0.04195468 0.02988132
000020 75 f3 11 3e 66 d8 35 3d 44 9a b6 bd 95 72 83 bd
       0.14253028 0.044395827 -0.089161426 -0.06418339
000030 b9 f0 ef 3c 62 da 9f 3d 3f d2 e2 3d fd 28 b7 3d
       0.02928959 0.07805325 0.110752575 0.08943365
000040 3d c6 75 bd af f8 c7 bd d7 f8 aa 3c cf 2e 9e bc
       -0.060003508 -0.097642295 0.02087061 -0.01930943
000050 ba c8 0c 3e e0 d4 4f 3d 34 ad 3f 3d e1 8a ab 3d
       0.13748446 0.050740123 0.04679604 0.083760984
000060 4e fe 86 bd a4 09 f1 3d e6 9f c2 bd 0d c3 b2 3c
       -0.065914735 0.11769417 -0.095031545 0.021821523
000070 c2 38 a1 3d d2 e8 ea bd 36 c2 ef bc b0 e8 fd bd
       0.07872154 -0.11470188 -0.029267412 -0.12397897
000080 36 ed 3e be 43 b6 1e be ae 33 2b be 86 be e1 3d
       -0.18645176 -0.15499215 -0.16718933 0.110226676
000090 0a c5 5e 3c 2d af 1e bd 06 7f ca 3d cc ae 88 bd
       0.013596782 -0.03874128 0.09887509 -0.06673965
0000a0 f6 2b 45 3b 53 00 54 3c e5 eb 10 bd 6d a8 80 bd
       0.0030086017 0.01293953 -0.035381217 -0.06282125
0000b0 43 1a 84 3d f8 17 c4 3d b6 6f b1 3d 75 68 54 3d
       0.064503215 0.09574884 0.08663885 0.05185743
0000c0 22 9e 09 bd ae e2 11 3e 05 fd 95 bc 4a a6 99 3d
       -0.033598073 0.14246628 -0.018309126 0.0750242
0000d0 50 ca fa 3d f0 1c 6d bc 47 0c 79 bd 96 0b 2a bd
       0.12245619 -0.014472231 -0.060802724 -0.041514955
0000e0 a9 44 da bd 6a a1 ac 3d 70 3f ad bd a4 46 10 3e
       -0.10657627 0.08429225 -0.08459365 0.14089447
0000f0 29 5d 95 bc 4d 8c 05 3e 55 b6 10 3e c1 91 c9 3c
       -0.018232899 0.13041802 0.14132054 0.024605634
000100 84 f8 05 3e e1 6c be bd 6a 2e 1b 3e 01 d0 f0 3c
       0.13083082 -0.09298111 0.15154424 0.029396059
000110 da 6b e5 3d 56 13 fc bb 06 46 19 3e 7e 14 df 3c
       0.11202212 -0.0076927347 0.14968118 0.027231451
000120 b9 c6 4f bc 42 70 a1 bd c7 ea ab bd 57 c4 a4 bd
       -0.0126816565 -0.078827396 -0.083943896 -0.08045261
000130 e1 4a 47 bd 79 00 e9 bd 87 59 af 3d d2 54 6f 3d
       -0.048655394 -0.11377043 0.08561998 0.0584305
000140 62 e9 57 bd 31 98 7e 3d 98 cb f8 bd 94 9c ae bd
       -0.052712806 0.06215686 -0.121482074 -0.08525959
000150 e3 78 c5 bc 5b a4 7c bd ae 1f f5 bc aa 2a f7 bd
       -0.024105495 -0.06168018 -0.029922333 -0.120686844
000160 68 62 f4 ba 1b 02 c3 bd 1b c2 e7 bd 7e 6d 39 3d
       -0.001864505 -0.09521886 -0.113163196 0.045270436
000170 f0 90 b0 3d c8 ef 59 3b d4 bd d2 bd 0b a7 b2 bc
       0.08621395 0.0033254493 -0.10290113 -0.021808168
000180 9e 75 d3 bd b5 a8 70 3d 39 90 c9 3d 6b 72 ef 3d
       -0.10325168 0.05875464 0.098419614 0.11691745
000190 65 a6 11 bb c4 53 8f 3d 64 28 82 3d 28 25 04 be
       -0.0022224423 0.06998399 0.0635536 -0.12904799
0001a0 b3 6f 96 bc ff f0 e6 bc 0e 2f 39 be e6 66 c2 bc
       -0.01836381 -0.028191088 -0.18084356 -0.023730706
0001b0 cf 31 67 bd 8b 5f 05 3e a1 84 98 bd 74 a8 fd bd
       -0.056443986 0.13024728 -0.07447172 -0.123856455
0001c0 2f 6f 08 be 7c 10 44 3d 02 77 13 3d 1d 36 05 3e
       -0.13323663 0.047867283 0.036002167 0.13008924
0001d0 19 89 29 3e bb d2 c0 bd 3a 50 62 3d c0 c1 c9 bd
       0.16556205 -0.09415194 0.05525229 -0.09851408
0001e0 91 d6 c4 3d fc 45 fc 3d 5f 71 9c bd 69 00 61 bd
       0.09611238 0.12318036 -0.07638811 -0.05493203
0001f0 5e ba a0 3d 2d f7 31 3e 78 e0 1b 3d ff 25 2e 3e
       0.07848047 0.17379446 0.038055867 0.17006682
000200 34 c0 b3 bd 8b 0e 79 3d 0c 1b 80 bd 43 48 53 bd
       -0.08776894 0.060804885 -0.06255159 -0.051582586
000210 9d 4c ba 3c a6 25 2e bd 8f b9 8d 3d 5d 10 46 bc
       0.02274161 -0.042516373 0.06920158 -0.012088862
000220 55 62 ac 3d bb 31 15 3d 0c f5 21 3e 8a d5 59 3d
       0.08417193 0.03642438 0.15816134 0.053182162
000230 b3 b4 b3 bd 56 e6 b7 3c 80 0a 72 3d 67 20 e7 bc
       -0.087747 0.0224487 0.059092045 -0.028213693
000240 ff 83 d1 bd 31 d9 30 3e 8f a9 5f bd 99 db c1 3d
       -0.102302544 0.17270352 -0.054605063 0.09465713
000250 56 e8 19 3d 5e ce fc 3c c0 5f d1 3d f0 b3 89 3d
       0.03757509 0.030860122 0.10223341 0.067237735
000260 cc 99 7c 3d 3e 34 9d 3b bc bd f1 3d cb 42 ab bd
       0.06167011 0.0047974875 0.11803767 -0.08362349
000270 a3 8d ad 3d cf 37 d1 bc 80 33 2b bd 6e d5 53 3d
       0.08474281 -0.025539307 -0.04179716 0.051717214
000280 87 c5 e2 3c df f8 07 be f9 81 3b 3d 75 56 a1 3c
       0.027682079 -0.1327853 0.04577825 0.019694546
000290 4a 0c 15 3e 33 44 1b 3e 8b 17 a0 3d 9f 88 f9 3d
       0.14555469 0.15162735 0.078169905 0.121842615
0002a0 86 c6 b4 bd 17 da f8 bc cf 81 0f bd 55 13 b2 bc
       -0.08826928 -0.03037743 -0.035035904 -0.021737734
0002b0 0c 8b fe bb 90 44 06 3d 4a ad 95 bd 74 73 03 3d
       -0.0077680405 0.03278023 -0.07308443 0.032092527
0002c0 af 56 ab bb 88 ca 24 3e 45 a8 07 bd be 51 77 3d
       -0.0052288393 0.16092885 -0.03311946 0.06038069
0002d0 1f f3 c2 bd a1 20 e2 bc 7f c7 a2 3d 18 0f 3e 3d
       -0.09519028 -0.02760345 0.07948207 0.046401113
0002e0 70 5c 89 bb db ac 70 3d 28 f7 ba 3d 46 7f 31 bc
       -0.0041919276 0.058758598 0.091291726 -0.010833567
0002f0 e5 09 cd bd 48 dc 79 3d 4d e7 2f 3c e6 9e 56 bd
       -0.10011653 0.061001092 0.010736299 -0.05239763
000300 8f eb bb bd 9c ac e6 bc 90 fe 12 3e 1b a8 f8 bd
       -0.091757886 -0.028158478 0.1435492 -0.121414386
000310 e4 74 c9 3d 3f 46 b9 bd 56 71 b6 bd 1d 85 19 3e
       0.09836748 -0.090466015 -0.08908336 0.14992185
000320 40 93 e5 3d a9 a6 ce 3d 57 08 8c bd a7 56 af bd
       0.11209726 0.10090382 -0.06837528 -0.085614495
000330 a5 d5 f7 3d f4 65 ee bc 9e 58 90 bd 3e 32 15 bd
       0.12101296 -0.02910135 -0.070481524 -0.036424868
000340 27 27 ad bd 92 af e1 3c 4e 85 12 be a9 2b 10 bd
       -0.08454733 0.027549539 -0.14308664 -0.035197888
000350 39 d2 76 3d 7a 6f ef 3d 1c 97 e0 bc 63 42 02 3e
       0.060259078 0.11691184 -0.027415805 0.12720637
000360 98 17 bc 3c 57 88 b6 bc f2 65 4b bd 35 3f 0d be
       0.02296047 -0.022281809 -0.04965777 -0.13793643
000370 37 a1 6c bc 05 bc 62 3d 37 ef 17 be fa dd 22 3d
       -0.0144427335 0.05535509 -0.14837347 0.039762475
000380 f6 45 34 bd 59 53 10 3e 3b bf 28 be fc f1 2a 3e
       -0.044012032 0.14094295 -0.16479199 0.16693872
000390 d4 1d ac bc c8 42 88 3a 3e 80 5b be f8 f1 75 bd
       -0.021010317 0.0010395879 -0.2143564 -0.060045213
0003a0 fa e4 48 be cc b6 fd bc bb c6 dc bd 52 07 27 bd
       -0.19618598 -0.030970953 -0.10780092 -0.040778466
0003b0 53 1c fb 3d 76 57 29 be a6 b1 17 3e 9a e8 4c be
       0.12261262 -0.1653727 0.14813861 -0.20010605
0003c0 df 74 04 3e 20 85 94 bd 37 a4 2f bc 39 77 e6 3d
       0.12935208 -0.07251954 -0.010720304 0.11253209
0003d0 c6 e4 f6 3b 5d 11 dc 3d f1 0f 2b bd 27 fb 7f bc
       0.007534596 0.10745499 -0.04176325 -0.015623844
0003e0 96 0b 6f 3d 48 22 c7 3d e8 63 bc 3d ef 05 f4 3d
       0.05836066 0.097233355 0.09198743 0.11915194
0003f0 e8 d8 46 bd 7e 92 d3 3d 46 20 92 3d b2 eb 88 bd
       -0.0485467 0.103306755 0.07135062 -0.0668558

lstm.weight_hh_l1 f4 [200, 50]
000000 52 4e 72 3c bf 78 0e be b2 bc 16 3e 02 bb d4 3d
       0.014789181 -0.13913248 0.14720419 0.103872314
000010 75 ee ef 3d 61 8d 28 bd c7 61 cf bc 5e 13 df bd
       0.11715404 -0.041150454 -0.025315179 -0.10892366
000020 f3 29 f7 3d 6a 38 04 3e cd 94 a7 3c de 9a 8b bd
       0.12068548 0.12912145 0.020456696 -0.06816648
000030 5f a6 27 be 5f 96 16 bd 13 f2 3d bd f4 71 0f 3e
       -0.1637206 -0.0367645 -0.046373438 0.14008313
000040 7b d1 9e 3c 3d d2 2e 3d a3 eb 5a 3c c9 5b 16 3c
       0.019386997 0.042680968 0.013361844 0.009177157
000050 df 6a 2e 3d f6 bc 74 bd f0 96 08 bd d1 00 ee 3d
       0.04258239 -0.05975052 -0.03334707 0.116212495
000060 26 93 14 3e cd eb 8a bd 10 62 c5 bd 54 9f e3 bd
       0.14509258 -0.06783257 -0.096378446 -0.11114374
000070 a8 c6 bd 3a 9c f2 66 3c 26 bc af 3c e3 47 00 3e
       0.001447876 0.0140959285 0.02145202 0.12527423
000080 bf 9d 72 3e cf 28 8f bd 10 3f 6b 3d 6d 17 03 3d
       0.23692988 -0.069902055 0.057433188 0.032004762
000090 5b c5 7f bd fd c6 0f 3c bb f1 a3 bd 01 41 2d bd
       -0.062444072 0.00877547 -0.08005091 -0.04229832
0000a0 43 62 16 3e 25 be 48 3d 61 7d c6 3d 84 db 01 3e
       0.14685921 0.04900946 0.09691883 0.12681395
0000b0 58 9e 7f 3d c9 0d 8d bd 14 4d b6 3b 3a 25 1b 3e
       0.062406868 -0.06887395 0.0055633876 0.1515092
0000c0 7b aa ea bd 52 ea b0 b9 e5 5d b7 3d 91 22 ce 3d
       -0.11458298 -0.00033743918 0.08953456 0.10065187
0000d0 07 be 18 bd e0 62 eb 3d 3e c9 6a 3d ad c1 3e be
       -0.0372906 0.11493468 0.057320826 -0.18628569
0000e0 3d 63 99 3d d1 5d b5 bd 60 66 17 3e da ae 93 bd
       0.07489631 -0.08855785 0.14785147 -0.07211085
0000f0 45 f8 11 3e af ed 92 bc 9f 00 07 3e cf ee db 3d
       0.14254864 -0.017935602 0.1318383 0.107389085
000100 48 08 01 be 37 12 fb b9 b3 64 09 3d 23 61 cc bd
       -0.12600815 -0.00047888022 0.0335433 -0.09979465
000110 0b c2 1f 3e f6 bd 0f 3e 2c 0d ba bd 43 67 50 bd
       0.15601365 0.14037308 -0.090845436 -0.050879728
000120 b3 ac d4 3d 9e 42 a8 3d 6a 12 ec bc 0a 48 87 bd
       0.10384502 0.08215831 -0.028817374 -0.06605537
000130 26 27 d2 3d a6 3e e8 3d f8 ce 0c be 6e 54 1a be
       0.10261373 0.11340074 -0.13750827 -0.1507127
000140 22 85 46 39 6c 92 24 3a 9f c5 ba bb a0 45 b9 3d
       0.00018932347 0.0006277922 -0.005699828 0.09046483
000150 7f 37 27 bd 15 c8 f5 3d 19 8a 2f bb ef ef 4b bd
       -0.04082441 0.12001053 -0.0026785193 -0.049789365
000160 fa 2b c8 3d bd 07 f9 bd 56 3f 49 37 bc 77 92 bc
       0.09774013 -0.12159679 1.199528e-05 -0.01787936
000170 20 01 52 bb e3 43 11 3e 21 8d 97 3c 47 c4 9e 39
       -0.0032044128 0.14186053 0.018499913 0.00030282346
000180 0d 7e 6a bd 45 76 71 bc 81 62 8c 3d c7 c9 9d 3d
       -0.057249118 -0.01473767 0.06854726 0.077045016
000190 bc ae 20 be 9f ad d0 bd ab 0a 94 3d 7b 5c 32 3d
       -0.15691656 -0.101893656 0.07228597 0.043545227
0001a0 2b d5 d3 3d 02 ea 14 3e 0e 88 b6 3d ed e0 b6 bd
       0.10343393 0.14542392 0.08912669 -0.0892962
0001b0 ff 66 a8 bd c1 a1 45 3c 2e 17 e3 bd 99 6f fe 3d
       -0.0822277 0.012062491 -0.110884055 0.12423629
0001c0 80 d8 95 3d 27 14 54 bd 7b af 8f bd dd 13 c1 3b
       0.07316685 -0.05177703 -0.07015892 0.0058922605
0001d0 08 c3 39 bd 3a d0 6e 3d 09 1e 69 3d 48 d0 1d 3e
       -0.045352012 0.05830405 0.05691341 0.15411484
0001e0 2b 47 c9 bd 4d 27 0d 3e 34 c5 9e bd f4 f4 c6 bb
       -0.09828027 0.13784523 -0.07752457 -0.006071681
0001f0 1a 48 30 bd ed 39 9e 3d a2 87 bb 3d 95 46 97 bd
       -0.04303751 0.07725892 0.09156729 -0.07386509
000200 84 6b 2d bd cd c8 87 3b 32 56 92 bd b4 60 f4 3d
       -0.042338863 0.0041438104 -0.07145347 0.11932507
000210 84 ed d6 3d 82 0b 2e bd 27 db 15 bd b0 28 3a bc
       0.10494521 -0.042491443 -0.036585953 -0.01136224
000220 72 33 d2 bd 31 f6 02 3d 36 2f 4c bd ef a9 b9 3d
       -0.10263719 0.031973068 -0.04984971 0.090656154
000230 79 92 0e bc b3 a2 75 3c f8 c1 2b 3d 1d a7 23 bd
       -0.008701914 0.014992404 0.04193303 -0.039954294
000240 34 79 ca bd d8 2f ae 3d 49 17 24 3c a5 07 0a 3d
       -0.09886399 0.08505219 0.010015317 0.033698697
000250 22 22 2f be 31 80 04 3d 5d 7c 08 be 73 84 72 3d
       -0.17102864 0.032348815 -0.13328691 0.059208345
000260 f1 4b 74 3d 12 e2 c1 3d 4e 63 fe 3d 06 af 49 bd
       0.059642736 0.094669476 0.124212846 -0.04923918
000270 c7 dc 20 3e f3 b4 db bd c5 d7 41 bb 0b b3 95 3d
       0.1570922 -0.10727873 -0.0029578072 0.0730954
000280 c4 be a7 bc 1c 9c 0c 3e 52 61 8c 3a a7 51 bd bd
       -0.020476706 0.13731426 0.0010710156 -0.092440896
000290 82 91 b6 bd f2 08 de 3d 26 f1 8a 3b 66 55 c5 bb
       -0.08914472 0.1084155 0.004240173 -0.006022143
0002a0 6f 15 16 3e 69 50 97 3d 5a d9 02 be 27 1a 55 bc
       0.14656614 0.07388384 -0.12778226 -0.0130067235
0002b0 d5 2f 4b bd 05 ed 67 3d e2 7c ec bd b3 7e 95 bd
       -0.049606163 0.056622524 -0.11547257 -0.072995566
0002c0 ce 9f 6a 3d 17 f5 6d bd 43 f9 ed 3c a9 33 39 3d
       0.057281308 -0.058095064 0.029049521 0.045215283
0002d0 69 0b cc 3a 90 a7 a9 3d 53 85 fe 3d 0c ab 1a 3e
       0.0015567365 0.08283913 0.12427773 0.15104312
0002e0 8e 6b ed 3d 09 56 93 3d 22 d4 91 3c 4b 27 ad bd
       0.1159278 0.07194144 0.017801348 -0.0845476
0002f0 3f 38 f7 3b 3e 58 e0 bd 02 29 f9 bd c0 ed f5 3d
       0.007544547 -0.10954331 -0.12166025 0.12008238
000300 58 43 82 3d d6 63 18 3c bb 6c 28 3d 71 47 f9 3d
       0.06360501 0.0093011465 0.04111932 0.121718295
000310 36 1a ca 3b 1d 79 2c bd 9f 52 41 bd 62 76 0f be
       0.0061676754 -0.04210769 -0.047197934 -0.14010003
000320 df 3a 67 bd 6c b9 aa 3d 29 40 5b bd 03 9b ed 3b
       -0.05645263 0.08336148 -0.053527985 0.007251145
000330 ce 0a 95 3d 31 61 18 3e 6a 01 22 3e 49 5d 77 bc
       0.072774515 0.14880826 0.15820852 -0.0150979245
000340 70 6b 82 bb 84 6d 95 3a 86 01 8b bd c0 99 32 3d
       -0.0039800927 0.0011400436 -0.067874 0.04360366
000350 9b fa e1 3d 1b e1 73 bd 94 98 cc 3d 11 ae cf bd
       0.11034127 -0.05954085 0.099900395 -0.101406224
000360 37 cb a5 3d 94 d6 b5 bc b4 4f 07 3e ff 59 f8 3d
       0.08095401 -0.022197045 0.13213998 0.121265404
000370 f2 1b 47 bd 72 e1 bb bd c5 b2 ca 3d 41 3a c8 3d
       -0.048610635 -0.0917386 0.09897379 0.09776736
000380 fc f6 c1 3d 61 c5 e0 3d 85 a7 db 3b 6f bc 3b 3e
       0.09470937 0.10975147 0.0067033195 0.183336
000390 48 54 2f be ad 90 24 bd 61 42 b8 bc 40 68 35 3d
       -0.17121994 -0.040177036 -0.02249259 0.044288874
0003a0 e0 2e 88 bd 7b 98 a2 bd d8 96 f8 3b 64 62 ac bd
       -0.06649566 -0.079392396 0.0075863414 -0.08417204
0003b0 cc 5b cb 3d 0b 5b b3 3d dd 59 8a bd 9a 83 0e bd
       0.09929618 0.087575994 -0.06755421 -0.034793474
0003c0 2b 3d df 3d 6a 5c fd bc 9f 58 d2 3c 59 90 9f bd
       0.10900339 -0.030927856 0.025677023 -0.07791204
0003d0 5b b8 1a 3e d6 77 7b 3d be d9 0e be 3f db ad 3d
       0.15109389 0.06139358 -0.1395025 0.084890835
0003e0 23 a9 12 bd a0 d3 c5 bd 97 82 38 3d 11 7b 81 bd
       -0.035805833 -0.09659505 0.045046415 -0.06322301
0003f0 20 b4 35 be 84 1a 29 be 98 2e 0d 3d 3c 9a 44 bd
       -0.17744493 -0.16514021 0.034468263 -0.04799865

lstm.bias_ih_l1 f4 [200]
000000 61 10 8a bc 7a e3 91 3a 52 c5 d9 bd 6a 93 86 3d
       -0.016853513 0.0011130415 -0.10633339 0.06571086
000010 b6 b0 0a 3d 90 57 9b bd 8a 1f 12 3e 9c f5 f3 bd
       0.03385993 -0.075850606 0.14269844 -0.11912081
000020 d5 e5 00 be a0 a9 f1 bd 2b 12 d7 39 91 f7 c6 3d
       -0.12587674 -0.117999315 0.00041021532 0.09715188
000030 1c 4f dd bd 1e c7 02 bc 81 d5 00 3e 12 6e b4 bd
       -0.108061045 -0.007982044 0.12581445 -0.08810057
000040 ad a4 ae 3d fd da 0a 3e 3f f0 d9 3b 5d 98 72 bd
       0.08527503 0.135601 0.006650954 -0.059227336
000050 f4 fa 11 3e f6 10 76 3c a6 98 0e 3e 5e 1c a7 bd
       0.14255887 0.015018692 0.13925418 -0.081597075
000060 37 f2 a2 3c 33 a5 1f bb bd aa 18 bd b4 c7 4e bd
       0.019890888 -0.002435994 -0.037272204 -0.05048342
000070 f9 66 af 3c b3 1c 34 3d 29 31 29 3e aa 1b 7f 3c
       0.021411406 0.043972682 0.1652266 0.0155705605
000080 5c fd c3 bb c5 14 d9 3d 92 9f 13 3e 92 16 78 bd
       -0.0059811305 0.105996646 0.1441634 -0.0605684
000090 49 f8 be bc b3 b7 ce 3d dd 7a 1f 3e f0 21 02 be
       -0.023311751 0.100936316 0.15574212 -0.12708259
0000a0 c4 5c fe bd c6 7e 74 bd 61 7c 5f 3d dd af 52 3a
       -0.124200374 -0.059691213 0.054561976 0.000803707
0000b0 64 ce 2e bc ee d0 3e 3d ee d2 25 3d 11 51 25 bd
       -0.010669325 0.04658597 0.04048436 -0.040360514
0000c0 de 45 ab bb e1 54 c3 bd 27 77 11 3d 70 7a 0f 3e
       -0.0052268347 -0.09537674 0.035514023 0.1401155
0000d0 31 38 c8 3c 80 df 93 3d 29 96 58 bc 5b 40 20 bc
       0.024440857 0.072203636 -0.013219395 -0.009780969
0000e0 ca 66 ca 3c 94 60 53 3d df d3 03 3e 48 78 6e bc
       0.024707217 0.051605776 0.12873791 -0.0145550445
0000f0 bc 24 3c 3e 55 4d 50 bd 19 da e8 3d 51 84 fd 3c
       0.18373388 -0.050855 0.11369724 0.030946882
000100 17 f6 ab bd 20 a3 c0 bd cb f6 25 bd 9d 6f d4 bc
       -0.08396547 -0.094061136 -0.040518563 -0.025932128
000110 aa 44 9e bc 09 c8 10 3d 73 95 7f bd 08 5a a7 bc
       -0.019319851 0.03534702 -0.062398385 -0.020428672
000120 ca 09 48 3b 69 c0 88 bd 28 71 6d 3c 01 15 21 bb
       0.0030523413 -0.06677324 0.014492311 -0.002457917
000130 09 d4 35 bd 62 e4 fc 3d 3a 24 fd 3c 47 01 f0 bc
       -0.044391666 0.12348248 0.030901063 -0.029297484
000140 34 d9 47 3e ec aa f8 3c b8 d7 8d 3d 16 94 e6 bd
       0.1951645 0.03035494 0.06925911 -0.11258714
000150 03 2f 68 bd 7c 2c 9b 3c 6b ba 21 3d d5 46 98 bd
       -0.05668546 0.01894211 0.039484423 -0.07435385
000160 2d 83 f1 3d 30 3d ff bb 98 21 ee 3d 47 4a d1 bd
       0.11792598 -0.0077892765 0.11627501 -0.102192454
000170 5b 77 52 3d f4 79 9a 3d 1d 20 f7 3d e5 c9 92 bd
       0.051383357 0.07542792 0.12066672 -0.071674146
000180 ed fe 00 3e e1 34 0b 3d 5e c9 a2 bd 27 7c 2f bc
       0.12597246 0.033985976 -0.07948564 -0.010710753
000190 11 97 64 bd 76 22 63 3d d3 e3 d3 3d d6 23 e4 3c
       -0.05580813 0.055452786 0.103461884 0.02784912
0001a0 6d 61 dc 3d 4f e0 99 3c 42 e6 08 3c 6c 7b d9 bd
       0.1076077 0.018783716 0.008355679 -0.10619244
0001b0 a5 1a 54 bc e5 42 ce 3d e0 9b 82 3d 3b dd c8 3d
       -0.012945806 0.10071353 0.06377387 0.09807821
0001c0 b9 66 03 be eb 1c 28 bd 5b 7f b4 bd 19 53 e2 3c
       -0.12832154 -0.041043203 -0.08813354 0.027627515
0001d0 af b7 63 bd fa 1b bb 3c 92 b6 05 be 78 7d a0 3d
       -0.055595096 0.022840489 -0.13057926 0.07836431
0001e0 45 f3 f8 3d ac 4b f6 3d 63 e3 a7 bd 80 f3 da bd
       0.12155775 0.12026152 -0.081976674 -0.10690975
0001f0 db 8c 09 3e 46 8c e2 bc d5 61 10 3e 05 e1 96 3d
       0.13432638 -0.027654778 0.1409982 0.07367138
000200 a8 91 d6 bd 9a e5 9d bd 01 da 9f 3d e9 1f 51 bd
       -0.104770005 -0.07709809 0.07805253 -0.051055823
000210 b9 df 86 3d 9c cf 0d 3e 4f 5d 99 bc 48 bb d0 3c
       0.065856405 0.13848728 -0.01872125 0.025479928
000220 7a 08 b0 3d 0f cc b4 3c 9b ab 66 bb 9b d1 dc 3c
       0.08595367 0.022069959 -0.00351975 0.026955416
000230 ea 22 0b 3d 46 65 a8 3d c6 3d 46 3d d8 84 56 3d
       0.033968844 0.082224414 0.048398755 0.052372783
000240 c0 75 8f 3c 25 4d b7 3c 8c c3 6f 3d f7 33 00 3e
       0.017512202 0.022375653 0.058536097 0.12519823
000250 70 56 ba bd 3e 0e 11 be ca a2 03 bd 61 20 d3 3d
       -0.09098518 -0.14165589 -0.03213767 0.1030891
000260 16 89 29 3e b8 14 00 3e 21 df f6 3d 06 ee 1b 3e
       0.165562 0.12507904 0.12054277 0.15227517
000270 46 1c 6e 3d d0 a9 a3 3d 1c 28 56 bc 55 f8 38 bd
       0.058132432 0.079913735 -0.013071086 -0.045158703
000280 50 a6 38 3e f6 95 f2 3d fd 70 bb bd f1 a2 fe 3d
       0.18032193 0.11845009 -0.0915241 0.12433422
000290 3a a7 84 3c f1 49 9e bd d3 f2 57 3d 60 86 d8 bd
       0.016193021 -0.07728947 0.05272181 -0.10572505
0002a0 c0 85 0e 3e 43 1c 6e bd ce 21 5e bd 28 fa 0e 3e
       0.13918209 -0.05813242 -0.054231457 0.13962615
0002b0 fd 06 21 3e 93 18 b1 bd fa f6 a1 3d 4d 18 6d 3c
       0.15725322 -0.08647265 0.07908435 0.014471126
0002c0 4e 20 27 bd c2 4a 95 bc d8 fa b7 ba 81 a9 de 3d
       -0.040802293 -0.018224124 -0.0014036549 0.10872174
0002d0 f9 28 55 3e 48 e7 00 bd cc 40 a4 3e 0a 2a 0a 3e
       0.20816411 -0.031470567 0.32080686 0.13492599
0002e0 f9 04 49 3e 51 3a 0c 3c 00 75 64 bd f6 5a 13 be
       0.19630803 0.008558826 -0.055775642 -0.14390168
0002f0 19 93 e5 bc b7 8d bb 3d 69 93 cb 3d 13 e1 d5 3d
       -0.028024243 0.09157889 0.09940226 0.1044332
000300 54 56 4b 3d 7b cb 26 bd 83 42 17 bd 68 b5 e7 3d
       0.049642876 -0.040721398 -0.036928665 0.11313897
000310 9b 85 c3 bd ad 80 e5 bd ad 7d 38 bd 3f ec 3a 3d
       -0.095469676 -0.112061836 -0.04504173 0.045635458

lstm.bias_hh_l1 f4 [200]
000000 99 b8 b1 bd 99 c7 e0 3d da 15 1c 3e 91 9d d7 3d
       -0.08677787 0.1097557 0.1524271 0.105281
000010 5d ca 3b bd b8 6f bf bc ef 3c ed bd 45 e7 09 3e
       -0.045847286 -0.023368701 -0.11583888 0.13467129
000020 2e 34 fe 3d e2 9c d4 bd b0 3f ae 3d b1 bb 4f 3c
       0.12412296 -0.103814855 0.08508241 0.012679026
000030 eb b2 96 bd ce 25 aa 3d 54 56 74 bd c5 d4 07 3e
       -0.07358345 0.08307992 -0.05965264 0.13264759
000040 11 02 0c 3e 19 fb c2 bc 72 dc 30 bd c8 ac 62 3d
       0.13672663 -0.023801373 -0.043178983 0.05534056
000050 5b 16 15 3e 93 5d be bc 7d b9 aa bd 11 ee 09 3e
       0.14559309 -0.023237979 -0.0833616 0.13469721
000060 d0 b8 9a 3d b9 de 21 3c df 30 54 bc 6d b1 96 bd
       0.075547814 0.009879761 -0.012951105 -0.0735806
000070 d2 b2 6f bd 14 fe cf 3d 3a c2 c5 3d 9e 69 c7 3d
       -0.058520146 0.101558834 0.096561864 0.09736942
000080 d9 33 20 3e 78 18 b3 3d b5 55 7a 3d 85 2e 52 bc
       0.15644778 0.087449014 0.061116893 -0.012828474
000090 74 d6 fe bc a3 2d 81 bd af d8 7a bd 0e 62 b5 bd
       -0.031108119 -0.06307533 -0.0612418 -0.08856593
0000a0 92 b6 c0 bd 06 16 93 bc ce 65 b1 bd 90 50 fd 3d
       -0.094098225 -0.017954838 -0.08661996 0.12368882
0000b0 47 f7 8a 3d ef d0 bb 3d d4 36 4f bd e2 91 0d 3e
       0.06785446 0.0917071 -0.050589398 0.13825181
0000c0 6f 15 96 3c 1f b0 04 3e 2a 59 e8 bd be 44 d7 bd
       0.018320767 0.1295781 -0.11345132 -0.105111584
0000d0 a4 44 87 3c 43 45 39 3d 22 a0 15 bd 88 ea a8 bd
       0.016512223 0.04523207 -0.036529668 -0.08247858
0000e0 11 67 a2 3d e2 65 d7 bc be 6e 84 bd 25 d5 ae 3d
       0.079298146 -0.026293699 -0.06466435 0.08536748
0000f0 0d 84 a0 3c dd 84 b0 bd aa 35 bc 3d 1c e7 16 3e
       0.019594217 -0.08619092 0.09189923 0.14736599
000100 35 0f 73 3c c8 8b 92 3d 05 16 1c 3e 32 c0 30 bb
       0.014835169 0.071555674 0.15242775 -0.0026970026
000110 cb f8 16 3e 64 05 31 bd c9 d0 a3 bc e9 c7 cf 3d
       0.14743344 -0.04321803 -0.019997017 0.10145552
000120 2f 17 d0 3c 0e a2 d9 bd f3 85 7b 3d 1c 04 9f 3d
       0.02540168 -0.106266126 0.06140704 0.07764456
000130 ff 0b a7 bb b5 32 d7 bc 65 2a 8b bd 0f 0c 16 bd
       -0.0050978656 -0.026269296 -0.067951955 -0.036632594
000140 b7 46 40 3e c3 f8 04 3e 1f 77 71 3e 3a 58 17 3e
       0.18776976 0.1298552 0.23580597 0.1477975
000150 aa ed ec 3c 44 44 ae 3d 24 00 23 3d be c4 43 bd
       0.02892192 0.085091144 0.039795056 -0.04779505
000160 c5 e5 4d bc 51 45 9c bd 6c 59 1b 3e 7f 7e b5 bc
       -0.012566988 -0.076304086 0.1517083 -0.022155045
000170 19 67 bd bd f1 cc 87 3d ac 97 af 3d 88 5d 6c 3d
       -0.0924818 0.06630886 0.08573851 0.057706386
000180 92 29 04 3e 67 22 14 3e 43 53 81 bc 74 01 c9 bd
       0.12906483 0.14466248 -0.015786773 -0.0981473
000190 f3 c6 88 3d 6d b9 45 3d 90 c1 c4 bd 16 31 f0 bd
       0.066785716 0.04827254 -0.096072316 -0.117281124
0001a0 cf 28 00 be 97 42 15 3d 5b 26 ac 3d 64 28 e3 bd
       -0.12515567 0.03644046 0.08405753 -0.11091688
0001b0 0d 51 d5 3d 34 0d 8f 3d 92 96 ba bc e8 e4 8f 3d
       0.1041585 0.0698494 -0.022776876 0.07026082
0001c0 fc b7 e2 3d ca 69 b4 3d 83 41 00 3e c4 60 b0 3d
       0.110702485 0.0880924 0.1252499 0.086122066
0001d0 24 3f f5 3d 99 c8 f1 bc de b8 34 3d 1a c4 c1 3d
       0.11974934 -0.029514598 0.044121616 0.094612315
0001e0 77 78 a6 bd 81 08 36 3d 53 56 7b 3d ba 18 8a 3d
       -0.081284456 0.044441704 0.061361622 0.067429975
0001f0 1d ef 4c bd 8f 60 35 3d 3b 3e 9e bd 8a 9b 9d 3d
       -0.050032724 0.04428154 -0.07726713 0.07695682
000200 43 81 b1 bd 94 a8 01 3e af 5d 26 bd f0 31 a6 bd
       -0.08667233 0.12661964 -0.040616687 -0.081149936
000210 fd 22 c0 3d 06 ff c5 3d 32 0d 90 bc 24 6f 14 bd
       0.093816735 0.096677825 -0.017584417 -0.036238804
000220 98 a6 8e bd 08 fb ef bd 48 7d 39 bc 70 f3 6d bd
       -0.06965369 -0.11717802 -0.011321373 -0.05809349
000230 eb 55 d0 3d c6 a3 e2 bd 7f 0f 96 bd 94 9d ef bd
       0.101726376 -0.110663936 -0.073271744 -0.116999775
000240 90 d0 f8 3d 94 c2 bf 3c 23 0a fb bd ed 2e 11 3d
       0.12149155 0.023408212 -0.12257793 0.035445143
000250 36 41 ed bd 65 68 8c 3c c1 35 2b 3e 91 d1 12 3e
       -0.115847036 0.017139623 0.16719724 0.14337756
000260 ff b6 09 bc 2e 57 06 bd e6 22 36 3c 2e a4 c3 3d
       -0.008405446 -0.032797985 0.011116719 0.09552799
000270 2e af cf 3c 5b a5 a7 bd d8 82 e7 3c 97 a5 df 3c
       0.025352087 -0.08185836 0.028260633 0.02730064
000280 9c dc cf 3d b7 fa df bd 0a 38 8d bd f4 aa 2d 3e
       0.101495 -0.10936492 -0.06895454 0.16959745
000290 f3 6a 4c bc a4 5d f8 bc 8b 29 b3 bb 41 3f f2 3d
       -0.012476671 -0.030318089 -0.005467599 0.11828471
0002a0 07 0d ae bd 44 b2 10 ba b6 1f 51 3e 3d f0 f6 3d
       -0.084985785 -0.0005519728 0.20422253 0.120575406
0002b0 9a 67 da bd 39 de d0 3b 06 7e 02 3e d4 25 9b bd
       -0.10664292 0.0063741473 0.12743387 -0.075755745
0002c0 9f 25 af bd 6a 06 c8 bd fb 16 dd 3d 46 76 94 3d
       -0.085520975 -0.097668484 0.10795399 0.07249121
0002d0 01 2d a2 3d 82 a9 25 3b b8 18 77 3e 62 39 1d bc
       0.0791874 0.0025278036 0.24130523 -0.009596201
0002e0 14 ee 21 bd 65 36 10 bc ed 65 31 3c 01 35 03 3e
       -0.03953369 -0.008802031 0.010827524 0.12813188
0002f0 7c 9d 46 3c 69 59 76 bd f3 f9 77 bd 74 ea 27 3e
       0.012122508 -0.060143862 -0.060541105 0.1639803
000300 34 44 b2 3d b3 7b 52 3d 9c a1 20 3e 22 0b 70 3c
       0.08704415 0.0513875 0.15686649 0.014651092
000310 8c 50 c3 3b ae a7 ec bc 90 60 2d 3c 59 bd 30 bd
       0.0059605297 -0.02888855 0.010582104 -0.043149326
